model/best.pt (torch, 72383 bytes, 6 tensors)

weight f4 [64, 113]
0.31937408 -0.14224395 1.6688504 0.66141737 -0.16400297 -0.07698004 -0.29331604 0.0008725836
0.623779 0.1503046 -0.012261995 -0.5531178 -0.008742201 0.2947205 0.02290064 0.6269706
1.0105104 0.0033726362 0.025781762 -0.25556615 -0.26073974 -0.628624 0.17870653 0.3739282
0.02505266 -0.58672893 -0.1209639 -0.89661765 0.85617864 -0.049349766 0.18277925 0.27819207
0.73049843 -0.08598533 -0.44439518 0.13953027 0.72482926 0.7745188 -0.41782957 -0.18884939
-0.11862155 0.18527019 0.24458304 -0.08001955 -0.31748638 0.010353527 -0.66927713 0.20870465
-0.1321192 0.05769432 0.08244614 1.0961791 0.24967916 -0.077105954 -1.2069728 0.6093846
-0.36230677 0.8265142 0.08770477 0.019615376 0.52180684 -0.5149504 1.5906804 -0.34966218
-0.13325594 0.004026508 -0.45245373 -0.15015922 0.1744836 0.05156991 -1.343515 -0.16892728
-0.13379148 -0.4255738 -0.39683345 0.21853174 0.19542876 -1.2159991 -0.022935785 -0.0061939387
-0.07641412 -0.17863093 -0.6317997 -0.57178855 1.4126186 0.08992613 -0.36672255 -0.13339037
0.47559714 -0.28004068 -0.4977998 2.2187498 0.0069998414 -0.18142661 -0.2531795 0.110158026
0.078199014 0.3851126 -1.8250747 -0.40989572 0.18126109 0.1778241 -0.48031968 0.63469315
-0.3075608 -0.20528823 -0.29065898 -1.7865481 0.03161616 0.14953472 0.25889146 -0.09088363
1.5952092 -0.029070824 0.06970012 0.0088161975 0.039692655 0.090746775 -0.030506589 0.042655155
-0.024775624 0.07871683 -0.03786808 0.027013779 -0.012982868 -0.054036774 0.03712876 -0.06923011
-0.077425666 0.0029258952 0.009659454 0.06829034 -0.018289708 0.07546063 0.07678324 0.0256733
0.013441823 -0.050768163 0.01578997 -0.01163882 -0.09039939 -0.03639422 -0.037255567 -0.081717096
-0.075879104 -0.017356142 -0.04607886 0.029464126 -0.03691389 -0.063374646 0.0036602393 0.010504194
0.084242076 -0.07488486 -0.07333422 0.009502813 0.07978159 -0.023719355 0.010983206 -0.007495962
0.07389732 0.09066051 0.08152415 0.049638957 -0.051568594 -0.03590409 0.06636846 -0.017694488
-0.04413321 -0.022487119 0.06936641 0.078067824 0.034057632 -0.0018014163 -0.00761541 -0.039067388
-0.020668216 -0.0182518 -0.034599833 -0.095254436 0.011598714 -0.11411462 0.0007810552 -0.12441997
-0.017057708 -0.061070092 -0.11203691 -0.06547468 -0.027768739 -0.03590546 -0.097552046 -0.09960026
-0.012688451 -0.013775554 -0.040733714 -0.091455296 -0.02678107 0.0076973075 -0.14843768 0.03268825
-0.13347842 -0.047858916 0.004959985 -0.11937983 -0.036356244 0.029624175 0.032456975 -0.08708208
-0.1532406 -0.035556935 -0.12653936 0.027886525 -0.10436026 -0.08273703 -0.12746164 -0.071976624
-0.093171805 -0.025223551 -0.11401765 0.02084048 -0.041328114 -0.05128929 -0.047865044 -0.07089501
-0.13592887 0.023769338 -0.11846451 -0.11473084 -0.036224462 -0.10600775 -0.04784818 -0.052981373
-0.028447973 -0.004257625 0.019437585 0.015453683 0.011243956 -0.035787333 -0.010118714 0.027676594
-0.07576556 0.009364489 -0.114469625 -0.023262188 0.0338704 -0.13384064 -0.103902385 -0.102325864
0.024081446 -0.055654716 -0.055829562 -0.025810072 -0.107616805 -0.052436046 -0.043714017 -0.14191726
00000000: 0085 a33e 66a8 11be e49c d53f a652 293f
00000010: 65f0 27be b6a7 9dbd 852d 96be 18be 643a
00000020: fbaf 1f3f 73e9 193e 89e6 48bc 2199 0dbf
00000030: 733b 0fbc 9be5 963e 1f9a bb3c 2581 203f
00000040: 6858 813f 7207 5d3b 4634 d33c 91d9 82be
00000050: ae7f 85be 81ed 20bf d8fe 363e 8473 bf3e
00000060: 3c3b cd3c de33 16bf ecbb f7bd bc88 65bf
00000070: 862e 5b3f fb22 4abd 7c2a 3b3e 316f 8e3e
00000080: f201 3b3f 1419 b0bd c487 e3be 06e1 0e3e
00000090: 698e 393f dd46 463f c2ed d5be bc61 41be
000000a0: dbef f2bd 78b7 3d3e fa73 7a3e 4ae1 a3bd
000000b0: 938d a2be d7a1 293c bf55 2bbf acb6 553e
000000c0: 414a 07be e150 6c3d 86d9 a83d 994f 8c3f
000000d0: e5ab 7f3e bae9 9dbd 167e 9abf a100 1c3f
000000e0: 4680 b9be 6f96 533f 8f9e b33d 6db0 a03c
000000f0: 2295 053f cad3 03bf 6a9b cb3f ec06 b3be
00000100: 3f74 08be ccf0 833b 04a8 e7be 57c3 19be
00000110: d4ab 323e f83a 533d 4df8 abbf 46fb 2cbe
00000120: a200 09be cfe4 d9be c12d cbbe c9c6 5f3e
00000130: 7a1e 483e dca5 9bbf d4e3 bbbc 86f6 cabb
00000140: 027f 9cbd 07eb 36be a0bd 21bf bc60 12bf
00000150: b0d0 b43f 312b b83d 0fc3 bbbe 7c97 08be
00000160: 7881 f33e 7e61 8fbe 9edf febe ffff 0d40
00000170: ed5e e53b e6c7 39be bea0 81be 889a e13d
00000180: ce26 a03d 7b2d c53e 0c9c e9bf dadd d1be
00000190: 829c 393e 8517 363e 76ec f5be 407b 223f
000001a0: 9c78 9dbe 1437 52be 41d1 94be 9cad e4bf
000001b0: f27f 013d a11f 193e 6c8d 843e 3221 babd
000001c0: d12f cc3f f025 eebc f0be 8e3d d071 103c
000001d0: c494 223d 72d9 b93d f4e8 f9bc 2cb7 2e3d
000001e0: 40f6 cabc 4a36 a13d 8f1b 1bbd 004c dd3c
000001f0: 18b6 54bc aa55 5dbd 5414 183d 84c8 8dbd
00000200: 5991 9ebd 60c0 3f3b b042 1e3c cedb 8b3d
00000210: 4cd4 95bc 1a8b 9a3d 8840 9d3d d050 d23c
00000220: 183b 5c3c 47f2 4fbd f859 813c c0b0 3ebc
00000230: 5123 b9bd 1b12 15bd 4b99 18bd 4b5b a7bd
00000240: 8166 9bbd 782e 8ebc 30bd 3cbd c05e f13c
00000250: 0533 17bd 91ca 81bd a0e0 6f3b c819 2c3c
00000260: 1c87 ac3d 3c5d 99bd 4030 96bd b0b1 1b3c
00000270: 8864 a33d 184f c2bc e8f2 333c b0a0 f5bb
00000280: 7a57 973d 38ac b93d 22f6 a63d 3852 4b3d
00000290: 9739 53bd 2b10 13bd 30ec 873d 08f4 90bc
000002a0: 06c5 34bd e836 b8bc fa0f 8e3d 06e2 9f3d
000002b0: 0480 0b3d 801d ecba b08a f9bb 2005 20bd
000002c0: 6450 a9bc cd84 95bc 8eb8 0dbd c214 c3bd
000002d0: 8808 3e3c edb4 e9bd babf 4c3a e6cf febd
000002e0: 9bbc 8bbc a224 7abd 9c73 e5bd 9717 86bd
000002f0: 447b e3bc 9b11 13bd 5ec9 c7bd 39fb cbbd
00000300: 39e3 4fbc dcb2 61bc 65d8 26bd ea4c bbbd
00000310: f963 dbbc b239 fc3b 0c00 18be 1de4 053d
00000320: 91ae 08be b607 44bd 5f87 a23b 6a7d f4bd
00000330: 49ea 14bd 66ae f23c 9bf1 043d 1758 b2bd
00000340: 1beb 1cbe 26a4 11bd 8993 01be 4872 e43c
00000350: d5ba d5bd 0872 a9bd 4e85 02be 7b68 93bd
00000360: dcd0 bebd 9fa1 cebc 1682 e9bd a8b9 aa3c
00000370: ab47 29bd b814 52bd 230e 44bd 6731 91bd
00000380: f030 0bbe eab7 c23c 859d f2bd 01f8 eabd
00000390: 1a60 14bd 971a d9bd 74fc 43bd ff02 59bd
000003a0: b90b e9bc 8c83 8bbb 923b 9f3c 7231 7d3c
000003b0: 9238 383c bd95 12bd f6c8 25bc 06ba e23c
000003c0: f92a 9bbd 836d 193c 0d6f eabd 5890 bebc
000003d0: b0bb 0a3d 850d 09be c6ca d4bd 3990 d1bd
000003e0: 7446 c53c 33f6 63bd 8aad 64bd a56f d3bc
000003f0: 3366 dcbd 2ec7 56bd 780d 33bd c252 11be

bias f4 [64]
0.031339884 -0.11116331 -0.06447255 -0.061029408 -0.063377365 -0.08365717 -0.047412913 0.014074829
0.30726138 0.0049475953 -0.02110662 -0.05807126 0.049523633 -0.022979908 -0.052733473 -0.06518531
0.02569214 0.10027156 -0.008771508 0.053547136 0.04616711 -0.057352737 -0.07577503 -0.07499849
-0.10789198 -0.1180708 -0.016707787 -0.07742806 -0.11931624 0.3401646 -0.021714404 -0.049071994
-0.12316437 0.13137813 0.10469374 0.16013272 0.15565862 0.23502246 -0.050728638 -0.1081868
0.052785248 0.2558076 0.090050265 0.098693386 -0.12996209 0.06884665 -0.029198835 0.27859905
-0.17405628 0.08044636 0.08809878 -0.10645008 0.3197305 0.0780688 0.018584006 0.059356593
-0.10158934 -0.085500956 -0.055132873 -0.1060992 -0.111175306 -0.14899337 -0.111651406 -0.06815278
00000000: 405e 003d 97a9 e3bd 2f0a 84bd f9f9 79bd
00000010: fecb 81bd 7354 abbd 0b34 42bd 1d9a 663c
00000020: 5d51 9d3e 701f a23b cae7 acbc 21dc 6dbd
00000030: 4bd9 4a3d 5c40 bcbc 0eff 57bd e07f 85bd
00000040: 5378 d23c 2d5b cd3d 5fb6 0fbc 3e54 5b3d
00000050: b919 3d3d b4ea 6abd f02f 9bbd cf98 99bd
00000060: 78f6 dcbd 1bcf f1bd c5de 88bc 9a92 9ebd
00000070: 135c f4bd 0e2a ae3e 68e2 b1bc b7ff 48bd
00000080: 9a3d fcbd fd87 063e ac69 d63d d5f9 233e
00000090: f964 1f3e baa9 703e d5c8 4fbd 0a91 ddbd
000000a0: 5835 583d 37f9 823e 466c b83d c21f ca3d
000000b0: c814 05be 79ff 8c3d 6532 efbc 89a4 8e3e
000000c0: cf3b 32be 10c1 a43d 226d b43d 8002 dabd
000000d0: b7b3 a33e 89e2 9f3d 7c3d 983c e61f 733d
000000e0: 120e d0bd 201b afbd 02d3 61bd 8a4a d9bd
000000f0: e1af e3bd b891 18be 7ea9 e4bd af93 8bbd

weight f4 [64, 113]
0.37689435 -0.107221775 1.6840017 0.44394448 0.16220924 0.2906041 0.7142447 0.005628855
0.60310805 0.29373112 -0.42174986 0.37665892 0.62191045 -0.15568203 0.27756783 0.7907704
0.6131216 0.8146479 -0.1404014 -0.1827026 -0.09747387 0.4100577 0.036040388 0.92559785
0.94832486 0.06693285 -0.5210997 -0.10304683 0.8224356 0.94185764 0.44438493 -0.153624
-0.15051655 0.49054646 0.072864085 0.92503387 0.34287447 0.67675763 0.21520777 0.35017702
-0.32690984 -0.1928212 1.4048195 0.17733076 0.48721173 0.0703779 0.03526728 0.24903095
1.0757045 0.4304121 -0.2541289 1.3904538 0.29746 0.14109983 -0.084930874 0.38539016
0.30369985 0.2441322 0.9431105 0.3534756 0.37234163 -0.22540733 1.3163712 0.69398326
-0.22992976 -0.15020938 -0.29689896 -0.22546211 -0.25081095 -0.28858474 -0.78422946 -0.26452008
-0.19717528 -0.4196763 -0.05106024 0.07573541 -0.18620013 -0.35466138 -0.20465045 -0.33243108
-0.17791066 -0.17388125 -0.26718137 -0.10981036 0.42331 0.034310237 -0.16499822 -0.047768906
0.37265918 -0.36814967 -0.4043635 0.009665048 -0.36386147 0.15150902 -0.19260518 0.079899944
-0.0067188186 0.16096509 -0.72574043 -0.2628304 -0.014938555 -0.18473348 -0.07978816 -0.14158432
0.057606425 -0.31801996 -0.37956217 -1.134757 -0.066000655 0.26141852 -0.16762803 0.10855396
-0.020252421 -0.02585108 -0.07649207 -0.039477244 -0.14664076 0.026941538 -0.08443038 0.012030152
-0.051514074 -0.10559932 -0.10661469 -0.054956745 -0.09715348 0.00060550455 -0.056693587 0.0340081
-0.1159229 -0.08692138 -0.13361703 0.01707984 0.02569254 -0.1282626 -0.11872489 0.024913965
-0.11939268 -0.1378568 -0.04832208 -0.036796503 0.00820824 0.019986017 -0.016197018 -0.011365007
-0.0017016856 -0.07730007 -0.03354875 -0.09363949 0.016126141 -0.024902167 -0.024042882 -0.08387796
0.022081811 -0.083619334 -0.076238595 -0.037605587 0.029684763 -0.039769962 -0.082519084 -0.14514323
-0.01644693 -0.070046656 -0.047550034 -0.042886857 0.011385849 -0.12393885 -0.02343539 -0.10916839
-0.0104901055 -0.1049959 -0.07458964 -0.09390471 -0.14393811 -0.11271345 0.018510234 0.028230878
0.0100418385 0.03700538 -0.0006313622 -0.036471937 0.026507743 -0.07905131 -0.03248146 -0.06962809
0.0008833781 -0.081701 0.04064253 -0.07564169 0.019212753 -0.01494737 -0.06600007 0.052892074
-0.048624557 0.016314663 0.04952778 0.0058955625 -0.015870512 0.045155138 -0.014663935 0.012945831
0.04264289 -0.029876165 -0.036096428 -0.07617067 -0.054430865 0.019258998 0.07785232 -0.06528339
-0.056326516 -0.02087693 -0.0681047 -0.08566867 0.067747325 -0.05176085 0.084243 -0.040591665
-0.0089880675 -0.06316807 -0.015235074 0.08505331 0.021176629 0.034015894 0.09357084 0.0162042
-0.036527414 -0.013214238 0.26759917 0.0510496 0.31610262 0.13718718 0.04256358 -0.0019260778
0.0022682857 -0.06326406 0.06456663 0.255442 -0.09867144 -0.008211192 0.08472283 -0.036281835
0.22492422 0.10988274 0.030136073 0.34108183 -0.037571367 -0.013704553 0.0051887813 -0.094686136
0.05910756 0.074824214 0.13198419 -0.20281415 -0.15063258 -0.10965534 -0.04490716 0.0031853486
00000000: 4cf8 c03e 1797 dbbd 5e8d d73f b14c e33e
00000010: 2e1a 263e 10ca 943e bed8 363f 4272 b83b
00000020: 4a65 1a3f ed63 963e 99ef d7be 70d9 c03e
00000030: 8635 1f3f 1c6b 1fbe 5f1d 8e3e ee6f 4a3f
00000040: 8af5 1c3f c48c 503f 62c5 0fbe 6416 3bbe
00000050: 61a0 c7bd 15f3 d13e 169f 133d fbf3 6c3f
00000060: 6bc5 723f 1714 893d ca66 05bf 370a d3bd
00000070: 248b 523f 951d 713f 6c86 e33e 9c4f 1dbe
00000080: 0321 1abe e828 fb3e c439 953d 05cf 6c3f
00000090: 3e8d af3e fd3f 2d3f 6d5f 5c3e 674a b33e
000000a0: ba60 a7be ec72 45be 20d1 b33f 3296 353e
000000b0: d173 f93e 4a22 903d 6c74 103d f801 7f3e
000000c0: afb0 893f fa5e dc3e 2f1d 82be 64fa b13f
000000d0: ad4c 983e 797c 103e 3df0 adbd dc51 c53e
000000e0: 8c7e 9b3e cbfd 793e b16f 713f c1fa b43e
000000f0: 90a3 be3e 2ed1 66be da7e a83f e3a8 313f
00000100: b572 6bbe 7dd0 19be 2403 98be 8adf 66be
00000110: 4b6a 80be 61c1 93be 43c3 48bf 2d6f 87be
00000120: 51e8 49be d0df d6be 8b24 51bd 2b1b 9b3d
00000130: 3fab 3ebe 2d96 b5be e38f 51be 6834 aabe
00000140: 362e 36be ed0d 32be ffcb 88be 41e4 e0bd
00000150: 17bc d83e e488 0c3d 4bf5 28be 54a9 43bd
00000160: 2fcd be3e 1d7e bcbe bc08 cfbe 265a 1e3c
00000170: 0d4c babe 2e25 1b3e 4b3a 45be 95a2 a33d
00000180: 8929 dcbb 08d4 243e 20ca 39bf b591 86be
00000190: d7c0 74bc c62a 3dbe fa67 a3bd 7bfb 10be
000001a0: b7f4 6b3d 83d3 a2be f955 c2be b83f 91bf
000001b0: 5a2b 87bd a6d8 853e afa6 2bbe 8a51 de3d
000001c0: 68e8 a5bc a5c5 d3bc e0a7 9cbd e4b2 21bd
000001d0: ff28 16be 80b4 dc3c d6e9 acbd 1d1a 453c
000001e0: 6c00 53bd 7544 d8bd cd58 dabd 531a 61bd
000001f0: 67f8 c6bd b9ba 1e3a 8937 68bd 144c 0b3d
00000200: fc68 edbd d603 b2bd e7d2 08be 05eb 8b3c
00000210: 2979 d23c 4557 03be 0926 f3bd 5f18 cc3c
00000220: 2684 f4bd 552a 0dbe 60ed 45bd eeb7 16bd
00000230: db7b 063c b7b9 a33c 9caf 84bc 4b34 3abc
00000240: 180b dfba 804f 9ebd 6a6a 09bd 10c6 bfbd
00000250: f81a 843c a1ff cbbc 94f5 c4bc 35c8 abbd
00000260: eae4 b43c 9d40 abbd fb22 9cbd 5108 1abd
00000270: 762d f33c d4e5 22bd c4ff a8bd 6da0 14be
00000280: b6bb 86bc 9f74 8fbd d3c3 42bd 21aa 2fbd
00000290: b68b 3a3c a7d3 fdbd 93fb bfbc ad93 dfbd
000002a0: b1de 2bbc 1708 d7bd 74c2 98bd 1d51 c0bd
000002b0: 8364 13be 4fd6 e6bd c6a2 973c 7144 e73c
000002c0: 8686 243c f492 173d 0082 25ba 9963 15bd
000002d0: c426 d93c a7e5 a1bd 480b 05bd 2c99 8ebd
000002e0: 8092 673a db52 a7bd c878 263d 08ea 9abd
000002f0: 1064 9d3c d0e5 74bc 0b2b 87bd 5ca5 583d
00000300: 8b2a 47bd 54a6 853c a4dd 4a3d 902f c13b
00000310: e002 82bc 98f4 383d 0041 70bc c01a 543c
00000320: 50aa 2e3d dcbe f4bc d9d9 13bd 5eff 9bbd
00000330: e6f2 5ebd 0cc5 9d3c 0a71 9f3d 4cb3 85bd
00000340: a2b6 66bd 1806 abbc 7a7a 8bbd 0e73 afbd
00000350: 1cbf 8a3d 2f03 54bd 9887 ac3d 7243 26bd
00000360: b042 13bc 435e 81bd 889c 79bc 6e30 ae3d
00000370: 9c7a ad3c 4054 0b3d 12a2 bf3d acbe 843c
00000380: c59d 15bd 8880 58bc c202 893e 6319 513d
00000390: 34d8 a13e cc7a 0c3e 2657 2e3d 7274 fcba
000003a0: 85a7 143b 9690 81bd 823b 843d 4bc9 823e
000003b0: 4014 cabd 3c88 06bc 2a83 ad3d 439c 14bd
000003c0: 8952 663e 340a e13d eddf f63c 47a2 ae3e
000003d0: 6fe4 19bd 1089 60bc a706 aa3b ceea c1bd
000003e0: c51a 723d 703d 993d dd26 073e 83ae 4fbe
000003f0: 6d3f 1abe fb92 e0bd 92f0 37bd 48c1 503b

weight f4 [16, 64]
0.43361354 0.066712566 -0.03148367 -0.054762334 -0.090042666 0.16280106 0.029426131 -0.02461565
0.31190008 0.045305334 0.047557965 -0.16353738 0.13368848 -0.16247524 0.06418393 0.033146624
0.48859578 0.07898892 -0.059023138 0.1151243 0.43353483 0.02492316 0.24551749 -0.07045443
0.07954265 0.4739692 0.06564604 0.045114826 0.14105189 -0.13941939 0.044760637 0.0030396879
-0.04758984 -0.05222428 0.024337323 -0.3522183 0.045932237 0.8043012 -0.03493079 0.002956481
0.6829669 0.030591324 0.1515562 0.0018914703 0.049859777 -0.10477825 0.029351449 0.22136515
0.23030794 0.041516937 0.12920047 0.13953204 0.44784838 -0.12198793 0.04483353 0.14831965
0.07639975 -0.30739057 -0.043319263 0.056744706 -0.12853502 0.098739475 -0.17805955 0.08518977
-0.034464553 0.09478661 -0.040210854 0.12456204 -0.096778385 0.047179922 0.15299687 0.041218497
0.13676937 0.1771521 0.13584742 0.06153041 0.10573305 -0.17912085 0.02496431 -0.14330444
-0.20269467 -0.19714259 -0.13753168 -0.022089804 -0.32884803 -0.013997107 0.041734688 0.17714013
-0.08810487 0.04084961 -0.08140687 0.026544008 -0.009430374 -0.8620614 -0.13417245 0.016569108
0.121996775 -0.23697506 0.053188615 -0.16314872 0.031082645 -0.40749937 0.16862257 -0.16765465
-0.22548287 0.2808205 0.031516284 -0.09421714 0.08832888 -0.059246816 0.0010677783 0.15406883
0.08425446 0.112610005 -0.09311419 0.116528265 0.12290382 0.0857583 -0.10279832 0.00011056691
-0.011523008 0.5310934 0.04769524 0.015402673 -0.036994282 0.06887722 0.18090843 0.07705503
-0.41932487 -0.08917003 -0.23485418 0.014899984 -0.038332094 0.031493854 -0.021873215 -0.11252425
-0.16389735 -0.119783595 -0.25780356 -0.16385758 -0.17693953 0.062191147 -0.09361687 -0.12455927
-0.20809644 0.11588375 -0.1129975 -0.20413408 -0.6236811 -0.10180053 -0.33804825 0.04835661
0.064963296 -0.32584858 -0.20233922 -0.06664386 0.025848953 -0.006106083 0.052457932 0.0834672
0.02807794 -0.357525 -0.18189949 -0.099230945 -0.22829139 -0.23346521 0.049662676 0.053388383
-1.5634952 -0.07460712 -0.10593368 -0.07821412 -0.022729691 -0.24655387 -0.18727808 -0.12793754
-0.17584828 -0.0513346 -0.009951541 -0.028294345 -0.18005018 -0.08236304 -0.16829467 -0.23202704
-0.16637437 -0.3942042 -0.05982544 -0.024772042 -0.04038182 -0.47901082 0.03158675 -0.08154727
0.3442628 0.12053677 0.08918895 -0.11514729 0.14988683 0.013470514 0.14265996 0.05008597
-0.26296365 0.089705564 0.010569401 0.11820185 0.049974922 0.17674792 0.05877714 0.2160965
0.19992493 -0.008070244 0.05416033 0.22687571 0.8114472 0.0018948315 0.3129726 0.104318
0.033078626 0.34114322 0.20931156 -0.013758434 0.12980638 -0.16366127 -0.0045998795 0.035881296
-0.009821002 0.4730756 0.13350208 0.14818618 0.1772167 0.027923794 0.0993923 0.090268105
1.1904821 0.20135841 0.2004827 0.06949336 0.15505643 0.235912 0.19156681 0.24671398
0.21211106 0.08004224 0.0901928 0.10517384 0.024110043 0.028432416 0.26810822 0.12630396
-0.034246366 0.08501449 0.015563158 0.07945407 0.11722098 0.25254685 0.0960179 0.20115605
00000000: 9802 de3e 99a0 883d 05f5 00bd 784e 60bd
00000010: 4a68 b8bd 52b5 263e 120f f13c c2a6 c9bc
00000020: 5eb1 9f3e 1692 393d 24cc 423d 5876 27be
00000030: a2e5 083e e95f 26be dd72 833d c1c4 073d
00000040: 3a29 fa3e f1c4 a13d 3fc2 71bd 4ac6 eb3d
00000050: 47f8 dd3e a82b cc3c f068 7b3e 6a4a 90bd
00000060: 42e7 a23d 17ac f23e 6e71 863d 53ca 383d
00000070: e86f 103e f5c3 0ebe ee56 373d 8035 473b
00000080: 90ed 42bd 20e9 55bd 115f c73c f555 b4be
00000090: 7123 3c3d afe6 4d3f 9713 0fbd 85c1 413b
000000a0: ebd6 2e3f a89a fa3c 8c31 1b3e 36eb f73a
000000b0: c439 4c3d fb95 d6bd 7372 f03c 8cad 623e
000000c0: d8d5 6b3e aa0d 2a3d 214d 043e 7de1 0e3e
000000d0: 624c e53e cfd4 f9bd 5da3 373d 1be1 173e
000000e0: 7977 9c3d 4c62 9dbe 8a6f 31bd 236d 683d
000000f0: af9e 03be ec37 ca3d 3e55 36be f977 ae3d
00000100: b42a 0dbd 7b1f c23d 23b4 24bd 621a ff3d
00000110: bf33 c6bd bc3f 413d 36ab 1c3e bad4 283d
00000120: 450d 0c3e 5c67 353e 961b 0b3e 5007 7c3d
00000130: 928a d83d 756b 37be f481 cc3c 66be 12be
00000140: 318f 4fbe bfdf 49be 1bd5 0cbe adf5 b4bc
00000150: c55e a8be 1f54 65bc fef1 2a3d 3964 353e
00000160: 5370 b4bd ec51 273d a5b8 a6bd d272 d93c
00000170: db81 1abc 0eb0 5cbf 8164 09be f0bb 873c
00000180: 72d9 f93d 97a9 72be 4edc 593d 7510 27be
00000190: 08a1 fe3c c2a3 d0be 65ab 2c3e a9ad 2bbe
000001a0: fbe4 66be b4c7 8f3e 3817 013d eaf4 c0bd
000001b0: c6e5 b43d caac 72bd b2f4 8b3a 38c4 1d3e
000001c0: 9a8d ac3d 13a0 e63d a7b2 bebd 5fa6 ee3d
000001d0: ffb4 fb3d 0ca2 af3d ed87 d2bd 28e0 e738
000001e0: 00cb 3cbc bdf5 073f 155c 433d 7e5b 7c3c
000001f0: 5187 17bd 800f 8d3d 0f40 393e 07cf 9d3d
00000200: c0b1 d6be c79e b6bd 9d7d 70be 101f 743c
00000210: 1d02 1dbd b3ff 003d 752f b3bc 1d73 e6bd
00000220: b5d4 27be 1a51 f5bd d4fe 83be 48ca 27be
00000230: a32f 35be 25bc 7e3d 34ba bfbd ee18 ffbd
00000240: 3c17 55be 7654 ed3d 3c6b e7bd 8608 51be
00000250: 91a9 1fbf cc7c d0bd a914 adbe 9511 463d
00000260: 7a0b 853d a0d5 a6be 0332 4fbe 937c 88bd
00000270: 2fc1 d33c 8915 c8bb 21de 563d daf0 aa3d
00000280: b503 e63c 840d b7be dc43 3abe 9839 cbbd
00000290: 38c5 69be 8111 6fbe 176b 4b3d c7ad 5a3d
000002a0: 9c20 c8bf 9ecb 98bd c2f3 d8bd b92e a0bd
000002b0: 9e33 babc 9e78 7cbe d3c5 3fbe 0f02 03be
000002c0: 9211 34be 3b44 52bd ca0b 23bc 8bc9 e7bc
000002d0: 135f 38be f4ad a8bd 7055 2cbe 7f98 6dbe
000002e0: 0b5e 2abe 22d5 c9be 850b 75bd bdee cabc
000002f0: 6867 25bd e840 f5be 1c61 013d 4102 a7bd
00000300: 3743 b03e fbdb f63d b2a8 b63d 58d2 ebbd
00000310: ef7b 193e 6eb3 5c3c 7415 123e f226 4d3d
00000320: 2ca3 86be 8db7 b73d 482b 2d3c d013 f23d
00000330: 81b2 4c3d 68fd 343e 4cc0 703d 6748 5d3e
00000340: 1fb9 4c3e 0f39 04bc 39d7 5d3d 1b52 683e
00000350: 01bb 4f3f ff5b f83a f23d a03e ada4 d53d
00000360: 747d 073d 53aa ae3e c555 563e 0e6b 61bc
00000370: f7eb 043e d296 27be 96ba 96bb 44f8 123d
00000380: 45e8 20bc f736 f23e c5b4 083e 1ebe 173e
00000390: 4b78 353e 71c0 e43c 318e cb3d 7cde b83d
000003a0: b861 983f e630 4e3e 564b 4d3e 8952 8e3d
000003b0: 1dc7 1e3e ea92 713e 172a 443e 97a2 7c3e
000003c0: a433 593e 30ed a33d 01b7 b83d 6265 d73d
000003d0: 6d82 c53c 19eb e83c 7b45 893e d355 013e
000003e0: eb45 0cbd 141c ae3d 9efc 7e3c d1b8 a23d
000003f0: 8e11 f03d d24d 813e 08a5 c43d dafb 4d3e

bias f4 [16]
-0.91758084 0.63394815 0.21238062 -0.15694965 -0.57942235 0.241666 0.360197 0.21758799
-0.012513745 -0.09228544 -0.15048024 0.0636803 -0.13645159 -0.36984393 0.15753561 0.106428675
00000000: 94e6 6abf 6d4a 223f 4e7a 593e 69b7 20be
00000010: 0655 14bf 4b77 773e be6b b83e 63cf 5e3e
00000020: 7306 4dbc 2600 bdbd 7e17 1abe d16a 823d
00000030: f7b9 0bbe 2f5c bdbe 0451 213e 47f7 d93d

weight f4 [16, 64]
1.076341 -0.09918224 0.22621158 -0.06727348 -0.030119745 0.12506938 -0.051162913 0.038167495
1.0114101 0.14670162 0.50209856 -0.07455879 0.60705686 -0.019563664 -0.28073698 0.080162324
0.96832496 0.7634912 0.16589001 0.024618307 1.3816218 -0.17621735 0.5233269 0.031627376
-0.093506075 0.11766058 -0.120049 -0.14692587 -0.027949963 -0.21985798 -0.056092337 -0.06702536
-0.11767271 -0.07303319 -0.016474923 -0.37084562 -0.3985089 0.39330402 0.026711611 0.13061301
1.7429199 -0.059781086 0.1081169 0.39823115 -0.006455201 -0.30420488 -0.18910597 1.0833533
-0.20929593 0.28171766 0.64253926 -0.2043121 0.3932176 0.05053913 0.54589665 0.029471032
-0.06928096 -0.36434704 -0.098629825 0.025804307 0.063628815 -0.3948666 -0.04639233 -0.1433254
-1.164364 -0.017346006 -0.3903833 -0.07916355 0.099107906 -0.1118803 -0.082567014 -0.08087817
-0.25052127 -0.13529994 -0.30690008 0.14855644 -0.06115496 -0.56312245 -0.115221865 -0.38319114
-1.073375 -0.98965263 -0.22557978 -0.007118964 -1.5498942 0.02493867 -0.7816456 -0.03652949
0.06273886 -0.13686578 -0.009734795 -0.069686666 -0.11819659 -0.59783757 0.08113872 -0.106626585
-0.009121897 -0.27545154 -0.0030886238 -0.34998795 0.48045936 -0.19795357 0.09470016 0.14573321
-2.5384052 0.38084993 0.12334278 -0.38015866 -0.09129314 -0.047647443 0.061344415 0.015171353
0.18542197 -0.42733148 -0.8714051 0.15527771 0.33309662 -0.18515405 -0.75429356 0.039160676
-0.106063664 0.56323886 -0.1325529 -0.03872058 0.13475147 0.19501884 0.119159974 0.0924994
-0.14142573 -0.027514871 -0.28786436 0.01922059 -0.1216127 -0.020187069 -0.031110859 -0.04336117
-0.37415236 -0.34974864 -0.6232915 0.03191985 -0.1446679 -0.16946337 0.056756407 -0.00046268263
-0.10569631 0.20320547 -0.11409513 -0.06065788 -0.19729152 -0.15125291 -0.25989667 -0.16686317
0.052544996 -0.04184361 -0.05243394 -0.0018728526 0.011535602 0.35507226 -0.10296994 -0.1069507
-0.11948161 -0.21822368 0.14659782 -0.036383044 0.21391463 0.12607767 0.03620383 -0.0039809654
-0.35605592 0.23880674 0.009373393 -0.14794235 -0.18265666 0.06430216 -0.07876838 0.041853216
0.044887196 -0.01798387 -0.10271227 0.18737197 0.014059254 -0.07869896 -0.25943598 0.0033662484
0.008597599 -1.3708911 -0.02805084 -0.08424713 -0.05055407 -0.1780409 0.060923055 -0.14166957
0.14541109 0.1341757 0.07404733 -0.07263987 -0.04149649 0.007382959 0.15009086 0.009613611
-0.69086325 0.06660692 0.019023534 0.05162629 0.0019137079 0.5588359 0.13468067 0.3206347
-0.0012347782 -0.13973397 0.19405414 0.17962533 0.3574503 0.007750874 0.4394749 0.0065383865
-0.07035735 0.045890994 0.14826332 0.1183114 0.18462393 -0.44875857 0.06616366 0.11072931
-0.015879808 0.45351136 -0.09340665 0.072699204 -0.19787386 -0.22345375 0.12726021 -0.03498336
0.101959676 0.07049702 -0.14226429 0.017511839 0.1832024 0.02279672 0.035009746 0.3510192
0.019417614 -0.09053921 0.21350187 -0.094915085 -0.10027088 -0.012690146 0.3319407 -0.1834456
-0.030405538 0.5820816 0.092018396 0.17077911 -0.019404395 -0.013699094 0.025510354 0.32342246
00000000: 8bc5 893f 0f20 cbbd 02a4 673e aec6 89bd
00000010: afbd f6bc 3012 003e 3490 51bd 8555 1c3d
00000020: e375 813f f338 163e 8889 003f 47b2 98bd
00000030: 1468 1b3f fa43 a0bc c2bc 8fbe 252c a43d
00000040: 25e4 773f 2974 433f 12df 293e 55ac c93c
00000050: fcd8 b03f 5272 34be c0f8 053f b58b 013d
00000060: 1d80 bfbd 08f8 f03d 40dc f5bd bc73 16be
00000070: 52f7 e4bc 7322 61be 14c1 65bd 9844 89bd
00000080: 64fe f0bd 6d92 95bd 6bf6 86bc 7adf bdbe
00000090: 5c09 ccbe 255f c93e 4fd2 da3c 6bbf 053e
000000a0: 0018 df3f 03dd 74bd 656c dd3d f4e4 cb3e
000000b0: 2786 d3bb bec0 9bbe ffa4 41be 52ab 8a3f
000000c0: ac51 56be 4c3d 903e 747d 243f 3137 51be
000000d0: d153 c93e 1e02 4f3d e2bf 0b3f 3c6d f13c
000000e0: 2de3 8dbd b28b babe 6ffe c9bd 8e63 d33c
000000f0: d34f 823d f42b cabe e205 3ebd e5c3 12be
00000100: e109 95bf 3619 8ebc 52e0 c7be 8020 a2bd
00000110: 16f9 ca3d 8021 e5bd e518 a9bd 74a3 a5bd
00000120: 5344 80be 118c 0abe 0222 9dbe 2e1f 183e
00000130: a07d 7abd cb28 10bf 71f9 ebbd a131 c4be
00000140: 5a64 89bf e059 7dbf 63fe 66be 3346 e9bb
00000150: ef62 c6bf 2f4c cc3c ed19 48bf f29f 15bd
00000160: 3b7d 803d 8b26 0cbe b17e 1fbc e2b7 8ebd
00000170: 0e11 f2bd e20b 19bf 0f2c a63d 0a5f dabd
00000180: 0274 15bc fc07 8dbe 826a 4abb 9f31 b3be
00000190: c5fe f53e 57b4 4abe 28f2 c13d 163b 153e
000001a0: 3b75 22c0 c3fe c23e 249b fc3d 28a4 c2be
000001b0: e6f7 babd f729 43bd 4844 7b3d 4491 783c
000001c0: 42df 3d3e 31cb dabe 6814 5fbf 1f01 1f3e
000001d0: a48b aa3e 0699 3dbe 6219 41bf f266 203d
000001e0: e837 d9bd 6c30 103f f3bb 07be 7999 1ebd
000001f0: 4afc 093e 05b3 473e 250a f43d 5370 bd3d
00000200: e8d1 10be de66 e1bc f562 93be 8074 9d3c
00000210: 1410 f9bd 5a5f a5bc 33dc febc 7b9b 31bd
00000220: e690 bfbe 4112 b3be 0890 1fbf 63be 023d
00000230: d223 14be ce87 2dbe 6879 683d 3694 f2b9
00000240: 4f77 d8bd 1815 503e b5aa e9bd 6674 78bd
00000250: ca06 4abe 0be2 1abe 2d11 85be 2ede 2abe
00000260: 6c39 573d 3564 2bbd f9c4 56bd 817a f5ba
00000270: d2ff 3c3c 08cc b53e e7e1 d2bd f808 dbbd
00000280: c6b2 f4bd 0776 5fbe bd1d 163e 6306 15bd
00000290: 700c 5b3e 811a 013e 784a 143d c272 82bb
000002a0: f64c b6be c189 743e dc92 193c 337e 17be
000002b0: 590a 3bbe dab0 833d 5151 a1bd 476e 2b3d
000002c0: a3db 373d e952 93bc d05a d2bd 70de 3f3e
000002d0: c958 663c ec2c a1bd cbd4 84be 479c 5c3b
000002e0: f2dc 0c3c 5c79 afbf e0ca e5bc c289 acbd
000002f0: c911 4fbd 5b50 36be 748a 793d d411 11be
00000300: a5e6 143e 5b65 093e 20a6 973d 36c4 94bd
00000310: 39f8 29bd c0ec f13b 6bb1 193e 6882 1d3c
00000320: 6adc 30bf 3569 883d 3ed7 9b3c 1776 533d
00000330: 62d5 fa3a df0f 0f3f bbe9 093e 3b2a a43e
00000340: 48d8 a1ba 6c16 0fbe 21b6 463e b4ef 373e
00000350: ba03 b73e 0bfb fd3b db02 e13e f63f d63b
00000360: 8417 90bd 32f8 3b3d 57d2 173e 3f4d f23d
00000370: 0e0e 3d3e afc3 e5be d080 873d 0cc6 e23d
00000380: 5f16 82bc a432 e83e fc4b bfbd 52e3 943d
00000390: 729f 4abe 0fd1 64be 8050 023e b64a 0fbd
000003a0: 3cd0 d03d be60 903d bbad 11be fd74 8f3c
000003b0: 6999 3b3e 30c0 ba3c 6166 0f3d cab8 b33e
000003c0: b011 9f3c 9f6c b9bd 3ca0 5a3e d762 c2bd
000003d0: d25a cdbd 55ea 4fbc 22f4 a93e 2ad9 3bbe
000003e0: 0915 f9bc 4d03 153f 2474 bc3d b8e0 2e3e
000003f0: f7f5 9ebc 2a72 60bc 17fb d03c a197 a53e
