model/HeadTransfer_best.pt (torch, 72871 bytes, 6 tensors)

weight f4 [64, 113]
0	0xba0b0843	-0.00053036603
1	0xbcb9489c	-0.02261763
2	0xbd16d667	-0.036825564
3	0xbd73dd1e	-0.059537046
4	0xbc8b7f97	-0.017028613
5	0xbdaee805	-0.08540348
6	0x3e0bc794	0.13650352
7	0xbc0dd41c	-0.008656528
8	0x3da15b60	0.078787565
9	0xbe26f9bc	-0.16306204
10	0x3d7319ea	0.059350885
11	0x3c6f30b0	0.01459901
12	0xbd3ff841	-0.046867613
13	0xbe0784d1	-0.13234259
14	0x3d05e688	0.032690555
15	0xbb5f5aba	-0.0034081177
16	0x3dd47a18	0.1037485
17	0xbe79e821	-0.24404956
18	0xbd8ac2c8	-0.06775433
19	0xbd756982	-0.059915073
20	0xbdc54454	-0.09632173
21	0x3d0deb6c	0.034648344
22	0x3dda4627	0.10657912
23	0x3d01b4ed	0.031666685
24	0x3ebe6691	0.37187627
25	0x3de34837	0.11097758
26	0x3e26e6ca	0.16298977
27	0x3e16d4f2	0.1472967
28	0xbe8fb259	-0.28065756
29	0xbe00a629	-0.12563385
30	0xbd0bd208	-0.03413585
31	0xbc9fbe08	-0.019499794
32	0x3e06b4b3	0.13154869
33	0x3d9e958f	0.0774337
34	0xbdc3c6b3	-0.09559383
35	0xbc66388a	-0.014051566
36	0xbc928d2f	-0.017889587
37	0x3b937e96	0.004501174
38	0x3e81593f	0.25263402
39	0xbdec9337	-0.115515165
40	0xbdac56b8	-0.08414978
41	0x3e360a6b	0.17777412
42	0xbdfaf714	-0.12254158
43	0x3e1d2207	0.15345012
44	0x3da98be5	0.08278636
45	0x3ca4dddf	0.020125328
46	0x3c4e428a	0.012589106
47	0x3dde49e8	0.1085394
48	0x3d286d27	0.04111972
49	0xbd265137	-0.040604796
50	0xbdb2a9c3	-0.08723786
51	0x3e135bda	0.14390507
52	0x3dc1cc85	0.09462837
53	0xbde197f0	-0.11015308
54	0x3e5ed6ea	0.2176167
55	0xbe016477	-0.1263598
56	0xbd8a68c5	-0.067582645
57	0x3e10a51d	0.14125486
58	0x3da5dd75	0.0809888
59	0x3ceb0ef3	0.028693652
60	0x3e1c1d5c	0.15245575
61	0xbb5c2d19	-0.0033596216
62	0x3cc9542f	0.024576275
63	0x3e37e691	0.17959048
64	0x3d36e14f	0.044648465
65	0xbcbd30af	-0.023094503
66	0xbc483e9e	-0.01222196
67	0x3d1a7041	0.03770471
68	0xbc0d666c	-0.008630376
69	0xbdd0e07e	-0.101990685
70	0xbd86935a	-0.06571074
71	0xbdd6c5be	-0.10486935
72	0x3d2de25f	0.042452212
73	0xbc3e150b	-0.011601697
74	0xbd1b719d	-0.037950147
75	0xbb9f5d74	-0.0048634354
76	0xbca530cd	-0.020164872
77	0x3cdf8194	0.027283467
78	0xbca85c3f	-0.020551799
79	0xbc8face5	-0.017538497
80	0xbd9f0189	-0.07763965
81	0xbdb12a05	-0.08650593
82	0xbd89959e	-0.0671799
83	0xbc274555	-0.010209401
84	0x3c87c245	0.016572127
85	0xbc266f49	-0.010158368
86	0xbdaea7ab	-0.08528074
87	0xbc7bb519	-0.015363001
88	0xbdffb2f5	-0.12485305
89	0xbd2ab3c9	-0.041675363
90	0x3c225eda	0.00991031
91	0xbdfa943c	-0.12235305
92	0x3c82ef5d	0.015983278
93	0x3d2c8385	0.042117614
94	0xbe04e746	-0.12978849
95	0xbddf7ea5	-0.109128274
96	0xbdb245af	-0.08704697
97	0xbd15caa0	-0.03657019
98	0xbbedbba2	-0.0072550336
99	0xbcfd4373	-0.030915951
100	0xbe082d3d	-0.13298507
101	0xbc1622f7	-0.00916361
102	0x3cf87471	0.030328961
103	0xbcc741a6	-0.024323296
104	0x3d350755	0.044196445
105	0xbccf79b2	-0.025326584
106	0x3d0f58c7	0.034996774
107	0xbcc86ac6	-0.024464976
108	0xbdd3a33e	-0.1033387
109	0xbe069d70	-0.13145995
110	0xbdf59546	-0.11991362
111	0xbd84065f	-0.06446528
112	0xbc62035d	-0.013794747
113	0xbe0a604d	-0.13513298
114	0xbe0329d0	-0.12808919
115	0xbd80a299	-0.06281013
116	0xbdafec6c	-0.08590016
117	0xbd0b1d8b	-0.03396372
118	0xbdb6b991	-0.08922113
119	0xbd15d99d	-0.036584485
120	0xbdc9985a	-0.09843512
121	0xbe03f7a1	-0.12887432
122	0xbe0578df	-0.1303439
123	0x3c0629ba	0.008188659
124	0xbd3985ea	-0.045293726
125	0xbd8a1d4d	-0.0674387
126	0xbd6c42cc	-0.05768089
127	0xbcfe931e	-0.03107601
128	0x3cf55a06	0.029950153
129	0xbe0d1eb6	-0.13781247
130	0xbe19b38f	-0.15009902
131	0x3cf14204	0.029450424
132	0xbe11aa00	-0.14225006
133	0xbdf77299	-0.12082405
134	0xbcb58707	-0.022159113
135	0x3cb3b682	0.021937612
136	0xbde5eeb9	-0.11227173
137	0xbdf3a214	-0.11896148
138	0xbdc6ab30	-0.0970062
139	0x3cec3dbe	0.028838035
140	0xbe11505e	-0.14190814
141	0xbe06862b	-0.13137119
142	0xbd484bb2	-0.048900314
143	0xbde6a02a	-0.112610176
144	0xbd31f3ba	-0.043445326
145	0xbdcb39b2	-0.09923114
146	0xbde594bd	-0.1121001
147	0xbdf49415	-0.11942307
148	0xbd118cc7	-0.035534646
149	0xbe021265	-0.1270233
150	0xbd46ef80	-0.04856825
151	0xbdc3d32f	-0.095617644
152	0x3cad8752	0.02118269
153	0xbdef0937	-0.116716795
154	0xbd9c7413	-0.07639327
155	0xbc6bc2c4	-0.014389697
156	0xbc26ee4d	-0.010188651
157	0xbe19529d	-0.1497292
158	0x3c83bf75	0.016082505
159	0x3d005ce2	0.03133858
160	0xbcaa6301	-0.020799162
161	0x3c4f4c39	0.01265245
162	0xbd77ae42	-0.06046892
163	0xbd44fe6d	-0.0480942
164	0xbdeb2f7e	-0.11483668
165	0xbd8d320a	-0.0689431
166	0xbda35f87	-0.07977205
167	0x3c9288d5	0.017887512
168	0xbd1cdbc9	-0.03829554
169	0xbc5054b4	-0.012715507
170	0xbc9a47db	-0.018833091
171	0xbe11499d	-0.14188237
172	0xbdff56a3	-0.124676965
173	0xbd3f8cb9	-0.046765063
174	0x3ca96093	0.020675933
175	0xbdc53143	-0.096285366
176	0xbd6b8a71	-0.057505075
177	0xbd24658b	-0.0401359
178	0xbe1b5029	-0.15167297
179	0xbd77652f	-0.06039923
180	0xbd8f086f	-0.069840305
181	0x3cd67d53	0.026182806
182	0xbd7840a0	-0.060608506
183	0xbe0c4c2c	-0.13700932
184	0xbdd41931	-0.103563674
185	0xbdc8ff38	-0.09814304
186	0xbc5b5b6d	-0.013388497
187	0xbd0d6501	-0.034520153
188	0x3cad5698	0.021159455
189	0xbd75286d	-0.059853006
190	0x3aa5e124	0.0012655598
191	0xbd02eab7	-0.031962123
192	0xbda6689b	-0.08125421
193	0xbe136e05	-0.14397438
194	0xbb7083c4	-0.0036699632
195	0x3cc95205	0.024575243
196	0xbc9bc60d	-0.019015336
197	0xbe03b875	-0.12863334
198	0xbd9bb527	-0.076029114
199	0xbd7bbe55	-0.06146081
200	0xbdc16de6	-0.094447896
201	0xbd47b735	-0.048758704
202	0x3cda38df	0.026638446
203	0xbca05714	-0.019572772
204	0xbcdc2e55	-0.026877562
205	0xbdeffccf	-0.11718141
206	0xbadcd733	-0.0016848802
207	0xbb7f547e	-0.0038960273
208	0xbd4e3158	-0.050340027
209	0xbdcf4f92	-0.10122599
210	0x3c0c11a5	0.008549129
211	0xbd06bda9	-0.032895718
212	0xbdebcc8d	-0.11513624
213	0xbe116960	-0.14200354
214	0xbd6586b8	-0.05603668
215	0xbde52bbf	-0.111899845
216	0xbd79a1a6	-0.060945176
217	0xbe00d784	-0.12582213
218	0x3ced8f92	0.028999124
219	0x3c54a7ba	0.012979442
220	0xbdad1611	-0.084514745
221	0x3ca77640	0.020442128
222	0xbdadfc9a	-0.084954455
223	0xbd8763ea	-0.06610854
224	0x3c227027	0.0099144345
225	0xbd98e8bd	-0.07466266
226	0xbb2a2020	-0.002595909
227	0xbcb4a4f9	-0.022051321
228	0xbd83c079	-0.064331956
229	0x3c890b34	0.016728975
230	0xbd7335fd	-0.05937766
231	0xbd4a7e6d	-0.049436975
232	0x3becd780	0.007227838
233	0x3c869e1c	0.016432814
234	0x3d3bf55c	0.04588829
235	0xbdb8ea9b	-0.090291224
236	0x3db493a8	0.08817226
237	0x3d3ef8bc	0.04662393
238	0x3c01b040	0.007915556
239	0x3c2a27ea	0.010385493
240	0xbd2583e4	-0.040408984
241	0xbc907a4c	-0.01763644
242	0x3be52822	0.0069933096
243	0xbd428acc	-0.04749565
244	0x3b2b4600	0.0026134253
245	0x3d9eed7e	0.07760142
246	0xbd86f83e	-0.06590317
247	0xbd3890be	-0.045059912
248	0xbd8a5f97	-0.067565136
249	0x3d296440	0.04135537
250	0x3b0e91e0	0.0021754429
251	0xbd714abc	-0.058909163
252	0x3c311b95	0.010809799
253	0xbe1671cb	-0.14691846
254	0x3c9f6cd5	0.019461075
255	0xbc6b5330	-0.014363095

bias f4 [64]
0	0x3e12d166	0.14337692
1	0xbd8e0f69	-0.06936533
2	0x3d0ee9e8	0.03489104
3	0xbd1f858a	-0.038945712
4	0xbdaaa418	-0.0833208
5	0xbdd46d91	-0.10372461
6	0x3d7725db	0.060338836
7	0x3dbff654	0.09373155
8	0x3e98364f	0.29728934
9	0x3c9b3351	0.018945368
10	0x3d48d017	0.049026575
11	0x3d42dd85	0.04757454
12	0x3e9bfc37	0.30465862
13	0x3de25be4	0.11052683
14	0xbd9796d6	-0.074018165
15	0xbdc7ae81	-0.09750081
16	0xbdb4b9d9	-0.0882451
17	0x3e2440ea	0.16040388
18	0xbd8319d0	-0.06401408
19	0xbd445267	-0.047930147
20	0xbe1b8b7d	-0.1518993
21	0x3e32b571	0.17452027
22	0xbe2123be	-0.15736291
23	0xbdd9635c	-0.106146544
24	0xbde893d5	-0.11356322
25	0x3e2827d1	0.16421439
26	0xbe11bf48	-0.14233124
27	0xbe081e35	-0.13292773
28	0xbdbb0bd3	-0.09133115
29	0xbce28809	-0.027652757
30	0xbd062159	-0.032746647
31	0x3dc3c959	0.095598884
32	0xbd0b608a	-0.034027614
33	0xbe6392b8	-0.22223938
34	0xbdce64cd	-0.1007782
35	0x3e301761	0.17196418
36	0x3e98cf2a	0.29845554
37	0xbdd07d98	-0.10180205
38	0xbdb824d9	-0.08991403
39	0x3e6048e0	0.219028
40	0xbda2384c	-0.07920894
41	0xbdd5f540	-0.10447168
42	0x3e1c1210	0.15241265
43	0x3e96c03f	0.29443547
44	0x3e07af2a	0.13250414
45	0x3d14aa1b	0.036295038
46	0xbe19ece2	-0.1503177
47	0x3dfaeb1e	0.12251876
48	0xbdfe6c69	-0.12423021
49	0x3e364970	0.17801452
50	0xbdf9c089	-0.12194926
51	0x3e44a9f0	0.19205451
52	0x3e0550ed	0.13019152
53	0xbe26593f	-0.16244982
54	0xbd7d7bac	-0.06188552
55	0xbd89228b	-0.06696042
56	0xbd798fbe	-0.0609281
57	0x3dc7f7b8	0.097640455
58	0x3d8608cd	0.06544647
59	0xbdd5d00b	-0.10440072
60	0xbda5a826	-0.080887124
61	0x3e68af5f	0.22723149
62	0x3ea0e98a	0.31428176
63	0xbe59a1d2	-0.21253136

weight f4 [64, 113]
0	0xbddc53aa	-0.10758145
1	0xbe4b46be	-0.19851205
2	0xbe1c5618	-0.15267217
3	0xbe710d0e	-0.23540136
4	0xbe0f86a6	-0.14016208
5	0xbe5ccf6e	-0.21563503
6	0xbd8a0bb0	-0.067405105
7	0xbe511717	-0.20418964
8	0xbe4ad6ef	-0.19808553
9	0xbe6801e2	-0.22656968
10	0xbdcabc9f	-0.09899258
11	0xbd227b40	-0.03966832
12	0xbe3c394c	-0.18381232
13	0xbe2da19b	-0.16956179
14	0xbe4868d5	-0.1957124
15	0xbe125b6f	-0.14292692
16	0xbe15c35b	-0.14625303
17	0xbe6488b2	-0.2231777
18	0xbe322f28	-0.17400801
19	0xbdfe527a	-0.12418075
20	0xbdbdfd47	-0.092768244
21	0xbe0efc9e	-0.13963553
22	0xbe75ef93	-0.24017172
23	0xbe5973c9	-0.21235575
24	0xbe288581	-0.16457178
25	0xbdf06cc6	-0.11739497
26	0xbe0c95a5	-0.1372896
27	0xbe1fbaa8	-0.15598547
28	0xbe0f9d18	-0.1402477
29	0xbda94652	-0.08265366
30	0xbdd71d11	-0.10503591
31	0xbe60f0b1	-0.21966816
32	0xbe2ca2e4	-0.16859013
33	0xbe880309	-0.26564816
34	0xbdd95ddb	-0.10613605
35	0xbe8ac815	-0.27105775
36	0xbe81efe5	-0.25378338
37	0xbe735397	-0.23762356
38	0xbd3637d7	-0.044486847
39	0xbe1c463f	-0.15261172
40	0xbe5364e9	-0.20643963
41	0xbe681630	-0.22664714
42	0xbda49ed4	-0.080381066
43	0xbe2fc472	-0.17164782
44	0xbe860024	-0.26171982
45	0xbe56b5f5	-0.20967849
46	0xbe4ebd92	-0.20189503
47	0xbd6b27b9	-0.05741093
48	0xbdb238e9	-0.08702261
49	0xbe63d814	-0.22250396
50	0xbe0e077d	-0.13870044
51	0xbe610019	-0.21972694
52	0xbe441979	-0.19150342
53	0xbdb22f23	-0.08700397
54	0xbe019464	-0.12654263
55	0xbe7876a2	-0.24264005
56	0xbdee0d54	-0.11623636
57	0xbe96110e	-0.29309887
58	0xbdf496f5	-0.11942855
59	0xbe7fd570	-0.24983764
60	0xbe5bc867	-0.21463166
61	0xbe8f00be	-0.27930254
62	0xbda13262	-0.07870938
63	0x3e26b990	0.16281724
64	0x3e82040f	0.2539372
65	0x3db84219	0.08996982
66	0x3e399a05	0.1812516
67	0x3dc79ea4	0.09747055
68	0x3e6deba5	0.23234423
69	0x3e15335c	0.14570373
70	0xbdb41c1b	-0.08794423
71	0x3ddda58e	0.10822593
72	0x3df17854	0.11790529
73	0x3e5d504c	0.21612662
74	0x3c287481	0.010281683
75	0x3d2f46e8	0.04279223
76	0x3e7dc549	0.2478229
77	0x3ec0db4f	0.3766732
78	0xbd8774b8	-0.06614059
79	0x3e3bfb85	0.18357666
80	0x3e405f7b	0.18786423
81	0x3e9a70fe	0.3016433
82	0x3d4e1220	0.050310254
83	0x3dfa40f5	0.12219421
84	0xbdb2e0e9	-0.087343045
85	0x3e38e535	0.18056186
86	0x3e3e7012	0.18597439
87	0x3c10206f	0.008796795
88	0x3e48d647	0.1961299
89	0x3e37ec41	0.17961217
90	0x3edabbd9	0.4272144
91	0x3e170e54	0.1475156
92	0x3e0151df	0.12628888
93	0x3e9da8ca	0.30792838
94	0xbd5e154c	-0.05421953
95	0x3e896774	0.2683674
96	0x3e492404	0.19642645
97	0x3e5c9fd1	0.2154534
98	0x3dc69f61	0.09698368
99	0x3e81e9a8	0.25373578
100	0x3e7874cf	0.24263309
101	0x3e843745	0.25823417
102	0x3e8ab54b	0.2709144
103	0x3e865fd0	0.26244974
104	0x3f1c4d79	0.61055714
105	0x3f484064	0.7822325
106	0x3e121895	0.1426719
107	0x3e22e1c1	0.15906431
108	0xbd6d82fc	-0.057986245
109	0xbe38e6bb	-0.18056767
110	0x3e0caf6f	0.13738798
111	0x3f03974b	0.5140273
112	0x3ef99273	0.48744544
113	0xbe0273f9	-0.12739553
114	0xbe17e5c3	-0.14833741
115	0xbd82eee6	-0.063932225
116	0xbd75ddcc	-0.060025975
117	0xbe0ad46e	-0.13557598
118	0xbd71fac2	-0.059077032
119	0x3c88aff8	0.016685471
120	0xbd304c9b	-0.043041807
121	0x3d06677f	0.032813545
122	0x3cdf0d6c	0.02722808
123	0xbe1c6a01	-0.15274812
124	0xbd83275a	-0.0640399
125	0xbdabd6f1	-0.08390606
126	0xbac93d08	-0.0015353272
127	0x3c8770ba	0.016533244
128	0xbe03135d	-0.12800355
129	0x3ae1713b	0.0017199883
130	0x3c3846aa	0.011247316
131	0xbdc438cc	-0.09581146
132	0xbc08e047	-0.008354253
133	0xbdc0fa31	-0.0942272
134	0x3a9b0c07	0.0011829146
135	0xbd053303	-0.03251935
136	0x3c27ddac	0.010245722
137	0xbba45312	-0.0050147856
138	0xbdd2673e	-0.10273598
139	0xbdbee110	-0.09320271
140	0xbe05c817	-0.1306461
141	0x3cd67a4d	0.026181364
142	0xbded484a	-0.11586054
143	0xbd800f39	-0.062529035
144	0x3cf1c32c	0.02951201
145	0xbcd0bb7b	-0.025480023
146	0xbde3501d	-0.11099265
147	0xbd89eb99	-0.0673439
148	0xbc0194db	-0.007909025
149	0xbd89ac4f	-0.067223184
150	0xbe043a84	-0.12912947
151	0x3c2418fd	0.010015723
152	0xbdf79b77	-0.120901994
153	0xbd171890	-0.03688866
154	0xbdef702b	-0.11691316
155	0xbc9359cb	-0.017987153
156	0xbe1aeee0	-0.15130186
157	0xb7d4efb4	-2.538399e-05
158	0x3b19986a	0.0023436793
159	0xbdc63c4a	-0.09679468
160	0xbe113954	-0.14182025
161	0xbdc5eea7	-0.0966466
162	0xbdba43eb	-0.090949856
163	0xbdf5940c	-0.11991128
164	0xbcf924c7	-0.030413045
165	0xbd405b2f	-0.04696196
166	0xbd9ddf47	-0.077086024
167	0x3cca681b	0.024707844
168	0xbd864fb5	-0.06558172
169	0xbd86c0b5	-0.06579725
170	0xbde26364	-0.110541135
171	0xbdc2217a	-0.094790414
172	0xbe0bb1e1	-0.13642074
173	0xba82dc09	-0.0009983788
174	0x3c88b8d6	0.0166897
175	0xbc0e62c1	-0.008690537
176	0xbc594d3e	-0.013263045
177	0xbdcefbcd	-0.10106621
178	0xbc6d97ea	-0.014501551
179	0xbc9f954f	-0.019480376
180	0xbad1aa0a	-0.001599611
181	0xbdc6fdb8	-0.09716362
182	0xbcdea679	-0.02717899
183	0x3cd1dfb7	0.02561937
184	0xbd9a6275	-0.075383104
185	0x3ce0936f	0.027414052
186	0xbdf27487	-0.11838632
187	0xbc1e16d7	-0.009649
188	0x3b0704d8	0.0020602252
189	0x3cf042bb	0.029328695
190	0xbddec548	-0.10877472
191	0xbcf1966c	-0.029490672
192	0x3c380a8b	0.011232982
193	0x3a5a9a57	0.00083390385
194	0xbdce0e84	-0.100613624
195	0xbd3ee8c0	-0.046608686
196	0xbe1d9bc9	-0.15391459
197	0xbe028fda	-0.12750188
198	0xbd434632	-0.047674365
199	0xbb0bac8b	-0.002131256
200	0xbe07c218	-0.13257635
201	0xbe115978	-0.14194286
202	0xbd99df2a	-0.07513268
203	0xbd4214c8	-0.0473831
204	0xbd2253fd	-0.03963088
205	0x3cf4a384	0.029863127
206	0x3bf686d6	0.007523398
207	0xbd0056e0	-0.03133285
208	0xbd58bc66	-0.052914046
209	0xbda93ea2	-0.082638994
210	0xbe053898	-0.1300987
211	0x3b6b489c	0.0035901433
212	0xbcb42fe9	-0.021995502
213	0xbdc2314d	-0.0948206
214	0xbe1dc5ad	-0.15407439
215	0x3a97c687	0.0011579552
216	0x3c5cbe2b	0.013473074
217	0xbe0dfbb1	-0.13865544
218	0xbdf81541	-0.12113429
219	0xbd1235a2	-0.03569568
220	0xbde92006	-0.11383061
221	0x3cd66b9d	0.02617436
222	0xbd81a1bd	-0.06329677
223	0xbcc6335d	-0.024194414
224	0xbd9666f7	-0.07343858
225	0xbd846345	-0.06464247
226	0x3e495980	0.19663048
227	0xbfa8f383	-1.3199314
228	0x3f649b99	0.89299923
229	0x3e2b256d	0.16713496
230	0xbf0527f8	-0.5201411
231	0xbe73dd6a	-0.23814932
232	0x3db21f4a	0.08697374
233	0x3ea20901	0.31647494
234	0x3f44865e	0.7676753
235	0x3f048d1f	0.51777834
236	0x3de2de2f	0.110775344
237	0xbe20f4ff	-0.15718459
238	0x3d326c1c	0.043560132
239	0x3de0c771	0.109755404
240	0x3e9e1919	0.30878523
241	0xbebf0fba	-0.37316686
242	0xbec88998	-0.39167476
243	0x3f34d870	0.7064276
244	0xbe3cbfeb	-0.18432586
245	0xbecb2f3b	-0.3968447
246	0x3e2938b0	0.16525531
247	0xbe2eee5a	-0.17083111
248	0xbf81923c	-1.0122752
249	0x3f4469ee	0.76724136
250	0x3d323ae4	0.043513194
251	0xbf3b98fb	-0.73280305
252	0x3b827e11	0.0039823134
253	0xbf5a3e95	-0.8525174
254	0x3fb5522e	1.4165704
255	0x3f1d8bc0	0.61541367

weight f4 [16, 64]
0	0x3dbbf04a	0.09176691
1	0x3e1169c6	0.14200506
2	0x3f6fff46	0.9374889
3	0x3e30072f	0.1719024
4	0xbd94babc	-0.07262179
5	0xbc997877	-0.0187342
6	0xbf0f5227	-0.5598473
7	0x3a883185	0.0010390735
8	0x3d2a7f1f	0.04162514
9	0x3c8f9420	0.017526686
10	0xbe66998d	-0.22519512
11	0x3d293e63	0.041319262
12	0xbdeb7008	-0.11495978
13	0x3bf11144	0.0073567946
14	0x3d9a2948	0.07527405
15	0xbd62becc	-0.05535774
16	0xbe8d4afb	-0.27596268
17	0xbe75a319	-0.23987998
18	0xbe006ba0	-0.12541056
19	0xbd9d56eb	-0.07682594
20	0xbd8a95be	-0.06766842
21	0x3f0ee43d	0.55817014
22	0xbe06e005	-0.13171394
23	0xbdd0c64e	-0.101940736
24	0x3d07c9b7	0.033151355
25	0x3ee09a16	0.43867558
26	0x3d4a0fc0	0.049331427
27	0xbde7849d	-0.11304591
28	0xbd5badea	-0.053632654
29	0xb8576f90	-5.1363895e-05
30	0xbd040093	-0.03222711
31	0xbdbaa1fe	-0.09112929
32	0x3d5aa11f	0.053376313
33	0xbde8b878	-0.113633096
34	0x3e2412f4	0.16022855
35	0xbd4021d6	-0.04690727
36	0x3e1595bd	0.14607902
37	0xbd851d55	-0.06499735
38	0xbb195735	-0.0023397927
39	0xbdf7b09c	-0.120942324
40	0x3e08df9b	0.13366549
41	0xbd70b688	-0.058767825
42	0x3d85c8d5	0.06532446
43	0xbdc2b3c4	-0.09506944
44	0xbd4ca556	-0.049962364
45	0xbe564e91	-0.20928408
46	0xbdf965db	-0.121776305
47	0x3d63dcff	0.05563068
48	0xbe19afdf	-0.15008496
49	0x3f60db2a	0.8783442
50	0x3d93d3c8	0.072181284
51	0xbd08df00	-0.033415794
52	0x3eeba187	0.46021673
53	0x3e21692b	0.15762775
54	0x3d5b3bd4	0.053523853
55	0xbe1f7c3a	-0.15574732
56	0xbca2f4a8	-0.019892052
57	0x3d9dbd50	0.07702124
58	0x3e42fd3f	0.19041918
59	0xbde5593b	-0.1119866
60	0xbe3f94f2	-0.18709162
61	0xbd93a45f	-0.07209086
62	0x3ed7a8dd	0.4212102
63	0xbda43d62	-0.0801952
64	0x3d587d89	0.052854095
65	0xbd60e1af	-0.05490273
66	0xbe3af570	-0.1825769
67	0xbe2d25e8	-0.16908991
68	0x3ddfad0a	0.109216765
69	0x3d080cf8	0.033215493
70	0x3d9ac546	0.07557158
71	0xbe4b6f23	-0.19866614
72	0x3f2006ff	0.62510675
73	0xbd44099d	-0.04786073
74	0xbd51d48e	-0.0512281
75	0xbdbf0317	-0.09326761
76	0x3d8d82bb	0.069097005
77	0x3dc5458e	0.09632407
78	0xbd2a2bff	-0.041545864
79	0x3ca9cc2a	0.020727236
80	0x3ca610cb	0.02027168
81	0xbb82bee5	-0.0039900416
82	0x3e567138	0.20941627
83	0xbd566d8a	-0.05235056
84	0xbe0a9f36	-0.13537297
85	0xbe9676a2	-0.29387385
86	0x3d89e4fb	0.06733128
87	0x3d886a00	0.06660843
88	0x3d0c6a45	0.034281034
89	0x3ee6280d	0.4495243
90	0x3cc52b92	0.024068628
91	0xbbafc3d9	-0.005363923
92	0xbe22600f	-0.15856956
93	0xbe0aad15	-0.13542588
94	0x3df1333d	0.11777351
95	0xbcdbbc0b	-0.026823064
96	0x3d4b5da4	0.04964985
97	0x3d6e07bb	0.05811284
98	0x3e0ebc57	0.13939033
99	0xbe22b5d1	-0.1588967
100	0xbdb3aab9	-0.08772797
101	0xbe23deff	-0.16003035
102	0x3e25896a	0.161657
103	0xbe27c6a3	-0.16384368
104	0xbd0449b3	-0.032296848
105	0xbe0f0731	-0.13967587
106	0xbe5e406a	-0.2170426
107	0x3d7c4436	0.06158849
108	0x3b2b47fe	0.002613544
109	0xbc8ce245	-0.017197737
110	0x3d7f3f3d	0.062316168
111	0xbdf202a4	-0.1181691
112	0xbd8331d3	-0.064059876
113	0x3ed841ff	0.4223785
114	0x3d5ab08f	0.053391036
115	0x3d6d03eb	0.057865065
116	0x3ed7798b	0.42084917
117	0x3ccb2511	0.024797948
118	0x3d595f8a	0.05306963
119	0x3d72caa8	0.0592753
120	0xbdaf657e	-0.0856428
121	0x3e8db1b9	0.27674654
122	0xbe146bfe	-0.14494321
123	0xbcacb0f9	-0.02108048
124	0x3d3daeae	0.046309166
125	0xbdd7a13e	-0.105288014
126	0xbe834f17	-0.25646278
127	0x3deb20c0	0.11480856
128	0xbd785bfe	-0.060634606
129	0xbd11de6c	-0.03561251
130	0xbf8e8d67	-1.1136903
131	0x3d602aa9	0.054728184
132	0xbd91c5cc	-0.07117805
133	0xbdcd2606	-0.10017018
134	0x3d25822c	0.040407345
135	0x3e59b88a	0.21261802
136	0xbe616208	-0.22010052
137	0x3d319829	0.043358
138	0xbd9a0ab4	-0.07521573
139	0x3dcfb11d	0.101412036
140	0xbdeaead6	-0.11470573
141	0xbd847c40	-0.06469011
142	0xbdbf4c1c	-0.093406886
143	0x3d1005ff	0.03516197
144	0xbce770e6	-0.028252076
145	0xbe8d8292	-0.2763868
146	0x3dfb9aab	0.1228536
147	0x3b75e9ef	0.0037523468
148	0x3d70fb6f	0.058833536
149	0xbf8123fd	-1.0089108
150	0x3d0f1f07	0.0349417
151	0xbd495e68	-0.0491623
152	0xbd3364ee	-0.043797426
153	0xbf7003d1	-0.93755823
154	0x3da38907	0.0798512
155	0x3e1e5d6a	0.15465322
156	0xbe2e1f5e	-0.17004153
157	0x3b71fa83	0.0036922998
158	0x3dce5a98	0.10075873
159	0x3dbfbdc3	0.09362366
160	0xbdc7bb45	-0.09752516
161	0x3d12e578	0.03586337
162	0xbd9d8562	-0.076914564
163	0xbe673c22	-0.22581533
164	0x3e50ed63	0.20403056
165	0x3d8556da	0.06510706
166	0x3cfd75ec	0.030940019
167	0xbd776f58	-0.06040892
168	0x3d85e63b	0.065380536
169	0xbdbf61c2	-0.09344818
170	0xbd839cc4	-0.06426385
171	0xbd6150b1	-0.055008594
172	0xbb8643a8	-0.0040974207
173	0xbc98f767	-0.018672658
174	0xbcf9a1f4	-0.030472733
175	0x3d3899ac	0.045068428
176	0x3e18f16b	0.14935844
177	0xbf9b19ad	-1.2117211
178	0x3df4ffa0	0.11962819
179	0x3dbe8a6e	0.09303747
180	0xb9983824	-0.00029033527
181	0xbd41bd32	-0.04729957
182	0xbdb12453	-0.086495064
183	0x3db2171c	0.08695814
184	0x3d3dd6f0	0.04634756
185	0xbe39371a	-0.18087426
186	0xbec6727a	-0.38759214
187	0x3d824502	0.063608184
188	0x3d8564b8	0.06513351
189	0xbe38e836	-0.18057331
190	0xbe95cd28	-0.29258084
191	0x3e31ef01	0.17376329
192	0x3e075621	0.1321645
193	0xbd9f5bdc	-0.07781193
194	0x3f859d4b	1.0438627
195	0x3d1bdf26	0.038054608
196	0xbe1c4c26	-0.15263423
197	0x3d7a0b5f	0.061046
198	0x3b11868e	0.0022205445
199	0x3dbf1823	0.093307756
200	0xbe6079e3	-0.21921496
201	0xbe38871c	-0.1802029
202	0x3d4f01e3	0.05053891
203	0xbc2f69ea	-0.010706404
204	0xbe45a3eb	-0.19300811
205	0x3dd56379	0.104193635
206	0xbd80003a	-0.06250043
207	0xbe013431	-0.12617566
208	0xbd17483e	-0.03693413
209	0x3bf64110	0.0075150803
210	0xbd80cf1c	-0.06289503
211	0xbd6ff944	-0.058587328
212	0xbc283a72	-0.010267841
213	0x3f2b0411	0.6680308
214	0xbd21eed2	-0.039534397
215	0x3bb6a637	0.0055740136
216	0x3d313ffb	0.043273907
217	0x3f312510	0.6919718
218	0xbe5bc511	-0.21461894
219	0xbd9e0cba	-0.07717271
220	0xbd9af464	-0.07566145
221	0xbd02e46d	-0.031956125
222	0x3d2d9168	0.042375
223	0x3e7c82f8	0.24659336
224	0xbd6629c3	-0.05619217
225	0xbd575751	-0.052573506
226	0xbca965ed	-0.020678485
227	0xbd8a04fd	-0.06739233
228	0xbee3baf3	-0.44478568
229	0xbdcbcc30	-0.09951055
230	0x3cbc679a	0.02299862
231	0xba425ab3	-0.0007414028
232	0xbe05eb1e	-0.13077971
233	0x3b38200d	0.0028095276
234	0x3d29a92e	0.041421108
235	0xbdc0bf4c	-0.09411487
236	0x3e899676	0.26872605
237	0xbbad71d2	-0.0052931095
238	0xbd0171e0	-0.03160274
239	0xbd7d8a41	-0.061899427
240	0x3d2e2171	0.04251236
241	0x3f8ebbee	1.1151102
242	0xbde1fdb3	-0.110347174
243	0x3e319ab2	0.17344168
244	0x3eef369f	0.4672136
245	0x3c397a75	0.0113207
246	0x3cbf2087	0.02333094
247	0x3d9ee4f0	0.0775851
248	0xbdc1dfc2	-0.094665065
249	0x3ed7ab92	0.42123085
250	0x3f165eee	0.587386
251	0xbe17308c	-0.14764613
252	0xbdc83a6f	-0.0977677
253	0x3e4ffe08	0.20311749
254	0x3e393c8f	0.18089508
255	0xbdc42070	-0.095764995

bias f4 [16]
0	0xbe8eefed	-0.27917424
1	0xbb925413	-0.004465589
2	0x3e4df060	0.20111227
3	0x3d960961	0.07326008
4	0x3e1549e7	0.14578973
5	0xbd2a68b2	-0.04160375
6	0x3d7f9dc4	0.062406316
7	0xbdd96692	-0.10615267
8	0x3e233df6	0.15941605
9	0x3d9872cf	0.07443773
10	0xbd84ab0a	-0.064779356
11	0x3e16e51a	0.14735833
12	0x3ebc727f	0.36806104
13	0xbe88bfd2	-0.26708847
14	0xbdd7c667	-0.10535889
15	0x3f12f732	0.5740844

weight f4 [16, 64]
0	0xbe455f4c	-0.19274634
1	0xbd3e084b	-0.046394628
2	0x3fdcf473	1.72621
3	0x3b42e650	0.0029739328
4	0x3d54d4da	0.051960804
5	0x3f09b420	0.53790474
6	0xbebd701c	-0.36999595
7	0xbe4aa04e	-0.19787714
8	0x3eee94b1	0.46597818
9	0xbeb1a848	-0.346987
10	0x3e64d486	0.22346696
11	0x3eb05083	0.34436426
12	0xbf090b1f	-0.53532594
13	0xbf94e20d	-1.1631485
14	0xbcba2928	-0.022724703
15	0x3e2559cb	0.16147535
16	0xbe87b57c	-0.2650565
17	0xbf2320e3	-0.63722056
18	0x3de0b65b	0.109722815
19	0x3e124602	0.14284518
20	0xbd4cf3d1	-0.05003721
21	0x3fd606cf	1.6720828
22	0xbd44d36e	-0.048053198
23	0x3e134c49	0.14384569
24	0x3e26a62a	0.16274324
25	0x3edeec29	0.4353955
26	0x3d90922c	0.0705913
27	0x3d7070b7	0.058701243
28	0xbda14819	-0.0787508
29	0xbd59eb67	-0.053203013
30	0x3bc76a86	0.0060856966
31	0x3e1060f4	0.14099485
32	0xbd86ca29	-0.06581528
33	0xbbe65233	-0.007028842
34	0xbc4df565	-0.012570714
35	0x3e175781	0.14779474
36	0x3f7e6a7f	0.9938125
37	0x3d799699	0.060934637
38	0x3dc33989	0.09532458
39	0x3e6f508b	0.23370568
40	0x3da73ed2	0.08166279
41	0xbe1eb787	-0.15499698
42	0x3f355ddb	0.7084634
43	0x3e7e3a05	0.2482682
44	0x3ea8787d	0.32904425
45	0xbdf76e6a	-0.12081607
46	0xbe0073d1	-0.1254418
47	0xbda45fa9	-0.08026058
48	0x3d6df237	0.058092322
49	0x3f67e401	0.9058228
50	0x3ce5f70c	0.028071903
51	0x3ebacffe	0.3648681
52	0x3e24a6e7	0.16079293
53	0x3f2e29a0	0.68032265
54	0x3c1af7cf	0.009458496
55	0x3c986b84	0.018605955
56	0x3c4af220	0.012386829
57	0xbe80fb55	-0.2519175
58	0xbe91b262	-0.28456408
59	0xbdc5f488	-0.09665781
60	0xbb6266d3	-0.0034546151
61	0x3ea51834	0.32245028
62	0x3ee5159f	0.44743058
63	0xbdceb1e4	-0.10092524
64	0x3cc02cc6	0.02345885
65	0x3dd061c1	0.10174895
66	0xbf7245bd	-0.9463766
67	0x3dbd8bc5	0.092551745
68	0xbe08cd8b	-0.13359658
69	0xbc23f6f2	-0.010007607
70	0x3e0151fd	0.12628932
71	0xbd4aa842	-0.04947687
72	0x3fba3473	1.4547256
73	0x3c080a4d	0.008303237
74	0xbd6d5cd0	-0.05794984
75	0xbe901296	-0.2813918
76	0x3e083bf4	0.1330412
77	0xbe62d1fe	-0.22150418
78	0x3dd2b2b9	0.10287995
79	0x3b7fe0b2	0.003904384
80	0xbcce58af	-0.025188772
81	0x3e21a9ba	0.15787402
82	0x3b55ef05	0.0032643687
83	0x3d800483	0.062508605
84	0xbe0f6ff1	-0.14007546
85	0xbeafaecc	-0.34313047
86	0x3e10cd7c	0.14140886
87	0x3d5b1944	0.053490892
88	0xbe1a5f35	-0.15075381
89	0xbe358e91	-0.17730166
90	0x3e1811d8	0.14850557
91	0x3cda1056	0.026619118
92	0xbd3e8317	-0.046511736
93	0xbc8be075	-0.017074803
94	0x3d8dadee	0.0691794
95	0x3dae6d32	0.08516921
96	0x3dfa8458	0.12232274
97	0xbcfee7f0	-0.031116456
98	0x3d1627ed	0.03665917
99	0xbeea5d62	-0.4577437
100	0xbde300aa	-0.11084111
101	0x3c1bcfd0	0.009509996
102	0x3dba5a85	0.090992965
103	0xbe0a5e83	-0.13512616
104	0x3dd8c9ba	0.10585351
105	0xbd785ac0	-0.06063342
106	0xbe89f11c	-0.26941764
107	0xbbcfe959	-0.006344956
108	0x3db072a5	0.08615617
109	0xbd8fe052	-0.070252076
110	0x3e50cee5	0.20391424
111	0xbf0a3940	-0.53993607
112	0xbd2075f3	-0.039174985
113	0xbe1385a9	-0.14406456
114	0x3d7e90d1	0.062149826
115	0x3e85d4b4	0.26138842
116	0x3e467f8e	0.19384596
117	0xbd951470	-0.07279289
118	0x3c22adf3	0.009929168
119	0x3ba73419	0.005102646
120	0x3cb29a78	0.021802172
121	0x3ee6ac94	0.45053542
122	0x3ce15a52	0.027508888
123	0x3e373cf0	0.1789434
124	0x3d5737db	0.052543502
125	0xbe8f9e27	-0.28050348
126	0xbe6a351a	-0.22871819
127	0x3ddf3ce9	0.109002896
128	0x3e05d9d5	0.13071378
129	0xbccad240	-0.024758458
130	0xbfae6712	-1.3625205
131	0xbd4b3761	-0.04961336
132	0xbafec3f9	-0.0019437067
133	0xbe95517b	-0.29163727
134	0x3dfd4977	0.12367528
135	0x3e1b611b	0.15173762
136	0xbf63fc3a	-0.8905674
137	0x3d084be7	0.03327551
138	0xbed26a1a	-0.41096574
139	0x3d82b933	0.0638298
140	0xbe118d7e	-0.14214131
141	0x3fa1fb26	1.265477
142	0x3bf0fdd3	0.007354477
143	0xbdd472f1	-0.10373486
144	0x3e5a56fa	0.21322241
145	0x3f55bf64	0.83495164
146	0x3d4cac5b	0.04996906
147	0xbce5ce66	-0.02805252
148	0xbe1e429a	-0.15455094
149	0xbf9a8e64	-1.2074704
150	0x3d07dfe6	0.03317251
151	0xbd73af85	-0.05949356
152	0xbd81d248	-0.06338936
153	0xbe828151	-0.25489286
154	0xbd80c9d0	-0.06288493
155	0xbe1e6660	-0.1546874
156	0xbaafb57f	-0.001340553
157	0x3de7cdb7	0.11318534
158	0xbb8d8b44	-0.0043195803
159	0xbcd10849	-0.025516646
160	0x3c5c9ea3	0.013465556
161	0x3e0cfa86	0.13767442
162	0xbca9a0a1	-0.020706477
163	0xbf73d883	-0.95252246
164	0x3e9d8773	0.30767402
165	0xbce6a35c	-0.028154068
166	0x3e0469de	0.1293101
167	0xbea9a4cd	-0.33133546
168	0xbd95471e	-0.07288955
169	0xbd95789c	-0.07298395
170	0xbef081b7	-0.46973965
171	0xbe53464a	-0.20632282
172	0xbea07ca8	-0.31345105
173	0xbede6ea6	-0.43443793
174	0x3d9bc28e	0.07605468
175	0x3f57d79c	0.8431337
176	0x3d8fa865	0.070145406
177	0xbefd64a8	-0.49490857
178	0x3e02b6ed	0.12765093
179	0xbdc100fd	-0.094240166
180	0xbdab297d	-0.08357523
181	0xbebfda4a	-0.3747123
182	0xbca715fb	-0.020396223
183	0xbd4b260f	-0.049596842
184	0x3dec676a	0.11543162
185	0xbc8b99b9	-0.017041074
186	0xbe20d3a5	-0.15705736
187	0xbdb4ab75	-0.08821765
188	0x3e03054d	0.12794991
189	0xbf11be8f	-0.56931394
190	0xbde52926	-0.11189489
191	0x3e1aa143	0.15100579
192	0xbe4bea93	-0.19913702
193	0xbe1753af	-0.14778017
194	0x3fecf858	1.8513288
195	0x3aa40112	0.0012512526
196	0xbd8b5704	-0.06803706
197	0x3f8f35df	1.1188315
198	0xbe89793a	-0.268503
199	0xbdb254bc	-0.08707568
200	0xbec0f7f9	-0.37689188
201	0xbef0f039	-0.47058275
202	0x3ede7205	0.43446365
203	0x3e12253f	0.14272021
204	0xbf115162	-0.56764805
205	0xbed56ebe	-0.41686052
206	0x3db19559	0.08671064
207	0xbdde4286	-0.10852532
208	0xbf0cb084	-0.5495684
209	0xbee86b82	-0.45394522
210	0x3c8d5b8b	0.017255565
211	0x3dbc3f80	0.09191799
212	0x3e329701	0.17440416
213	0x3faeda55	1.366038
214	0x3d5a59b1	0.053308193
215	0xbd36d236	-0.044634067
216	0xbe350969	-0.17679371
217	0x3e851c58	0.25998187
218	0xbd452bbe	-0.04813742
219	0x3d034d25	0.032055993
220	0xbd9beb24	-0.07613209
221	0x3c061586	0.0081838425
222	0x3de2704d	0.11056576
223	0x3f35f080	0.710701
224	0x3dd1be61	0.1024139
225	0xbe275064	-0.1633926
226	0xbd7a1756	-0.06105741
227	0xbdab017a	-0.08349891
228	0xbf262eca	-0.64915144
229	0xbe00875e	-0.12551638
230	0xbd642559	-0.05569968
231	0x3e25eb0d	0.16202946
232	0x3d5ca8c5	0.05387189
233	0xbdabfee4	-0.08398226
234	0x3e8c9f8b	0.27465472
235	0xbcfe550c	-0.031046413
236	0x3f747327	0.9548821
237	0x3e8db4fd	0.27677146
238	0xbd0ebcf7	-0.03484818
239	0xbeafca68	-0.3433411
240	0x3d70902a	0.058731236
241	0x3f2417d1	0.6409884
242	0xbccba1df	-0.02485746
243	0x3f1b4ec6	0.60667074
244	0xbdcec681	-0.10096455
245	0x3f82455d	1.0177418
246	0x3df9a155	0.12188975
247	0xbe15ce17	-0.14629398
248	0xbdd269fa	-0.1027412
249	0xbdd10704	-0.10206416
250	0x3d6975b7	0.056997027
251	0x3caf2e07	0.021384252
252	0xbd25ff10	-0.04052645
253	0x3ed8ef9a	0.423703
254	0xbda3f5d0	-0.080058694
255	0xbdea77b2	-0.11448611
