model/Head2Tail_best.pt (torch, 38793 bytes, 4 tensors)

bias f4 [64]
0.02706482 -0.0631523 -0.06165528 0.024707587 -0.06000907 -0.0734869 -0.05959014 -0.06170628
-0.060624804 -0.013582104 -0.06667182 0.00023121657 0.041439936 -0.06011374 0.041315086 -0.01970828
-0.060629558 0.034890633 -0.04651774 -0.159509 0.041603062 -0.047996562 -0.060924865 -0.22215973
-0.06712934 0.013516145 -0.04058093 0.03216979 -0.0053594187 0.16656989 -0.008548814 0.0041983533
0.027851818 -0.05626661 -0.008900153 -0.22437513 -0.188079 -0.034258045 0.025849745 -0.008035886
-0.03957105 -0.038205776 -0.16708517 -0.029113652 0.11154499 -0.07556551 -0.059988428 -0.25153106
0.028972648 -0.0053383084 -0.11820885 -0.11877012 -0.028906211 -0.028408583 -0.061036147 -0.07780624
0.0374713 -0.32048434 -0.23259927 0.024761459 -0.07683535 -0.060076885 -0.061326336 -0.057996493
00000000: 0bb7 dd3c fe55 81bd 3f8a 7cbd 9167 ca3c
00000010: 12cc 75bd 4d80 96bd ca14 74bd b9bf 7cbd
00000020: b751 78bd 7987 5ebc 3c8b 88bd ba72 7239
00000030: ecbc 293d d339 76bd 023a 293d 4273 a1bc
00000040: b356 78bd 7be9 0e3d 6389 3ebd 5456 23be
00000050: f967 2a3d 0b98 44bd 5a8c 79bd d77d 63be
00000060: 1b7b 89bd d272 5d3c 3038 26bd 78c4 033d
00000070: 109e afbb 4c91 2a3e 5310 0cbc 5792 893b
00000080: 7f29 e43c d177 66bd f3d1 11bc 98c2 65be
00000090: c897 40be 2a52 0cbd d8c2 d33c f3a8 03bc
000000a0: 4115 22bd a97d 1cbd 6018 2bbe c17f eebc
000000b0: b371 e43d 17c2 9abd 6db6 75bd aec8 80be
000000c0: 0c58 ed3c faec aebb 7b17 f2bd c03d f3bd
000000d0: b8cc ecbc 1eb9 e8bc 0a01 7abd e158 9fbd
000000e0: 827b 193d 8616 a4be 812e 6ebe 8bd8 ca3c
000000f0: da5b 9dbd 2e13 76bd 5331 7bbd bb8d 6dbd

weight f4 [64, 113]
0.30130208 -0.3777431 -0.39724562 0.36493164 -0.012600818 0.10853451 0.07433082 0.031672444
-0.28505358 -0.13924299 -0.0043890676 0.0060626245 -0.0664492 0.0061090873 0.069163635 0.3465095
-0.15416355 0.29337803 -0.12949887 -0.2776396 0.32538712 0.0015957152 0.18011682 0.26956052
-0.13419253 -0.36775053 0.52451676 -0.104957804 0.5105999 0.011792633 0.39352852 -0.25172904
-0.22429237 -0.05235606 -0.10487267 0.39847195 -0.1533672 0.36733636 0.39334685 -0.04005288
0.07628525 0.21815494 -0.12151374 -0.08041568 -0.39095247 -0.1163621 -0.5175686 -0.061969806
0.29515538 -0.09589615 -0.236416 0.13511036 -0.29809722 0.17601034 -0.43973723 0.39624026
0.27292848 0.16288237 0.055740766 -0.3001242 0.14152166 0.294272 -0.43615314 -0.2011945
-0.48715672 -0.07740919 0.07973609 0.51115876 -0.22905563 0.26256502 0.72087276 -0.39029083
-0.17906344 -0.016906543 -0.0031378595 -0.87033683 0.31469247 1.0094173 0.41302502 -0.6113881
-0.20785074 0.99910885 1.1916282 -0.060708757 0.17049372 0.39253256 -0.22368285 0.758315
1.520083 0.20887655 0.08941077 0.4152081 0.66073686 -0.25012812 0.5048999 0.270933
-0.23630175 -0.8439756 -0.34274942 -0.40354958 -0.30589372 1.0751936 -0.5673156 -0.23869434
0.2930487 2.0406203 0.3919942 2.9207423 -0.7889151 -0.3534226 0.92190963 -0.59818083
0.7289537 0.0693264 -0.12857993 -0.22789124 -0.20289247 0.019702828 -0.17054752 -0.10382342
-0.18938768 -0.16826385 -0.06759135 -0.16484478 -0.17594919 -0.14437272 -0.18183936 0.10089844
-0.15701729 0.11099002 0.077386424 -0.17919387 -0.12835944 0.04105421 0.021872219 -0.16065837
0.022904744 -0.037854787 -0.17201905 0.024644628 0.075288504 -0.21655248 -0.21504645 0.046203386
0.072372355 0.009797042 -0.14782622 0.017098188 0.12754543 -0.1457584 0.10765529 -0.050829407
-0.21321164 -0.16172059 0.08987326 -0.034709945 -0.05164874 -0.21327637 0.091319606 0.061542712
-0.034616575 -0.03057254 -0.087973565 0.117557205 -0.18467702 -0.022251362 -0.15061173 0.006728535
-0.2040525 0.026790127 0.0056503974 -0.18936102 0.106914066 -0.15885416 0.11037391 -0.23519659
-0.21457882 -0.037091903 -0.03365298 -0.20496342 -0.073964134 0.14274158 -0.08677403 0.18906437
-0.12643786 -0.24209842 -0.17115337 0.09878003 0.10253902 -0.11009468 0.119485885 -0.023563026
-0.12274665 -0.11564963 -0.04647043 0.08471151 0.060611337 0.019431038 0.048111323 -0.23946226
0.018882653 0.067375 0.10967844 -0.03247917 0.06348388 -0.17078777 -0.100069515 0.09558718
-0.043415196 -0.052706562 -0.08457963 -0.14024465 -0.071182184 0.0009920452 -0.17368598 -0.17926013
0.082189746 0.06682672 -0.080269836 0.121506795 0.1782888 -0.13227513 0.18159285 0.0019234285
0.0071092374 0.08610322 -0.6558394 1.0772387 0.52382493 -0.1594801 -0.35488787 -0.49004203
1.3105313 0.61576164 0.114418864 -0.62241244 0.30769128 -0.01559068 0.12425011 0.54333764
0.22660659 -0.47741 0.8302203 -0.86931396 -0.37850252 0.14155295 -0.6848285 -0.26571146
0.41189307 -0.800793 1.3995562 1.4417559 -0.8966097 0.77538925 -0.31706044 -0.08496394
00000000: 4444 9a3e 8b67 c1be c763 cbbe 52d8 ba3e
00000010: a973 4ebc 5747 de3d c23a 983d f7ba 013d
00000020: 8bf2 91be b795 0ebe 2bd2 8fbb fba8 c63b
00000030: 8516 88bd bd2e c83b aaa5 8d3d b169 b13e
00000040: 0ddd 1dbe a535 963e 5a9b 04be c726 8ebe
00000050: 2499 a63e 5127 d13a 8b70 383e d603 8a3e
00000060: c469 09be cc49 bcbe bb46 063f 1ef4 d6bd
00000070: adb6 023f e335 413c 927c c93e a1e2 80be
00000080: e6ac 65be 4f73 56bd 7bc7 d6bd 8404 cc3e
00000090: 4b0c 1dbe 8313 bc3e c264 c93e 7d0e 24bd
000000a0: 713b 9c3d 0264 5f3e 32dc f8bd fab0 a4bd
000000b0: ec2a c8be 414f eebd 607f 04bf 0dd4 7dbd
000000c0: 9b1e 973e 3365 c4bd 0917 72be 5f5a 0a3e
000000d0: 33a0 98be 0e3c 343e 3d25 e1be 01e0 ca3e
000000e0: 48bd 8b3e a3ca 263e 6e50 643d e1a9 99be
000000f0: 0eeb 103e d2aa 963e 774f dfbe ee05 4ebe
00000100: 9b6c f9be b688 9ebd ad4c a33d 4ddb 023f
00000110: 8f8d 6abe ec6e 863e 1e8b 383f 33d4 c7be
00000120: 685c 37be 977f 8abc 8ca4 4dbb 65ce 5ebf
00000130: 5f1f a13e 9634 813f 0478 d33e ee83 1cbf
00000140: d3d6 54be 99c5 7f3f 4687 983f bfa9 78bd
00000150: e895 2e3e 07fa c83e 1e0d 65be ef20 423f
00000160: 1492 c23f bce3 553e fe1c b73d 2896 d43e
00000170: 0d26 293f cb10 80be 1f41 013f bbb7 8a3e
00000180: 16f9 71be c90e 58bf da7c afbe 0d9e cebe
00000190: 1a9e 9cbe f29f 893f 983b 11bf 4a6c 74be
000001a0: 7b0a 963e 8699 0240 77b3 c83e 71ed 3a40
000001b0: 57f6 49bf cff3 b4be 4502 6c3f 6122 19bf
000001c0: b69c 3a3f 00fb 8d3d 75aa 03be 525c 69be
000001d0: 0bc3 4fbe d367 a13c 02a4 2ebe 60a1 d4bd
000001e0: d8ee 41be 5c4d 2cbe 556d 8abd 12cd 28be
000001f0: 062c 34be 71d6 13be 1934 3abe d7a3 ce3d
00000200: 24c9 20be bc4e e33d c67c 9e3d 997e 37be
00000210: a870 03be 7628 283d 5e2d b33c a183 24be
00000220: bba2 bb3c 9f0d 1bbd c325 30be 88e3 c93c
00000230: dc30 9a3d efbf 5dbe 2335 5cbe c33f 3d3d
00000240: f537 943d c683 203c c25f 17be 8011 8c3c
00000250: 459b 023e b141 15be 607a dc3d 7f32 50bd
00000260: 2754 5abe 159a 25be 790f b83d 042c 0ebd
00000270: a18d 53bd 1f65 5abe c605 bb3d 3614 7c3d
00000280: 1cca 0dbd 4373 fabc 7c2b b4bd d5c1 f03d
00000290: f91b 3dbe 7d48 b6bc f639 1abe 0b7b dc3b
000002a0: 23f3 50be f876 db3c f826 b93b dbe7 41be
000002b0: c3f5 da3d aaaa 22be b70b e23d 60d7 70be
000002c0: 8dba 5bbe aeed 17bd b5d7 09bd eee1 51be
000002d0: 827a 97bd d92a 123e 95b6 b1bd 179a 413e
000002e0: ed78 01be a6e8 77be d442 2fbe 2f4d ca3d
000002f0: faff d13d 5279 e1bd 04b5 f43d 3f07 c1bc
00000300: 9862 fbbd b7d9 ecbd c757 3ebd 3a7d ad3d
00000310: 9843 783d d72d 9f3c 6110 453d 9835 75be
00000320: cbaf 9a3c e7fb 893d 179f e03d e108 05bd
00000330: d603 823d fde2 2ebe 3ff1 ccbd 36c3 c33d
00000340: 22d4 31bd d6e2 57bd 1638 adbd 4b9c 0fbe
00000350: f7c7 91bd 8307 823a bdda 31be f88f 37be
00000360: 1953 a83d 73dc 883d 8364 a4bd 8ed8 f83d
00000370: 5791 363e 2273 07be 7af3 393e 8d1b fc3a
00000380: 9bf4 e83b e356 b03d 17e5 27bf f5e2 893f
00000390: 6419 063f c04e 23be ddb3 b5be cae6 fabe
000003a0: 7dbf a73f 8ea2 1d3f 7054 ea3d 6c56 1fbf
000003b0: b689 9d3e 0d70 7fbc d776 fe3d 2d18 0b3f
000003c0: 8f0b 683e 156f f4be 5189 543f 5c8b 5ebf
000003d0: 15cb c1be 42f3 103e ec50 2fbf 550b 88be
000003e0: a6e3 d23e c500 4dbf a824 b33f 758b b83f
000003f0: 3788 65bf e97f 463f bf55 a2be 9301 aebd

bias f4 [16]
0.25991964 -0.06762847 -0.16364883 -0.003284922 0.060166784 -0.3351957 0.09298552 0.077262625
-0.0999387 0.19247286 0.014975291 -0.1059464 0.19136237 -0.52803105 0.04001378 0.20269623
00000000: 3014 853e cc80 8abd 8f93 27be d947 57bb
00000010: 7271 763d c59e abbe 316f be3d de3b 9e3d
00000020: a9ac ccbd 9b17 453e ec5a 753c 6dfa d8bd
00000030: 7ff4 433e 0b2d 07bf 7de5 233d 9a8f 4f3e

weight f4 [16, 64]
-0.74635077 0.18116769 0.31004503 -0.14018965 -0.09987803 -0.037272383 0.15979908 -0.08690825
0.122497655 -0.3557865 -0.042827353 -0.6902801 -0.41415456 -0.053462528 0.16846608 -0.8113616
0.16935171 0.106818534 -0.7952676 0.67112094 1.934685 -0.16718781 -0.088609435 0.20599936
0.26376393 -0.7689151 -0.3895667 0.2600116 -1.0694088 3.4085362 -0.13819338 -1.3363774
-0.31372678 0.099311076 -0.029092634 0.7022523 1.024193 -0.04469758 -0.8222211 -0.28482616
-0.7973667 -0.93103147 0.5416153 0.17328022 3.8782918 0.16120589 0.15551555 -0.36450052
-0.63371634 -1.3549905 0.5817924 -0.060917895 -0.77182907 1.0155411 0.11001946 0.8887322
-0.20942049 -0.032118402 -0.1758758 -0.6549044 0.93332744 0.11337044 -0.1567603 -0.18779933
-0.4891877 0.23450063 1.0225427 -0.31180984 -0.24281639 0.1795409 0.07728135 -0.3103457
0.082549505 -0.14009209 0.051266223 -0.3858355 -0.14067388 -0.047610104 0.6246132 -0.45348266
0.1482589 -0.41026318 -0.041453168 -0.458114 0.11967187 0.6218055 0.14927198 -0.25249824
0.14515556 -0.08455125 0.43963835 -0.42568937 -0.29676706 0.93008095 0.0065174554 -0.39691952
-0.26491365 0.18386689 0.19226906 0.8566735 1.9714494 -0.12725492 -0.31035393 -0.44014534
-0.4372313 -0.26743418 -0.21090169 1.6301625 0.9379163 -0.16927192 -0.13383316 -0.16323915
-0.114850804 -0.3904072 -0.22374308 -0.46852657 -0.35770792 1.9663308 0.11693332 -0.39599514
-0.18558906 -0.30620784 -0.29733405 -0.20854132 -0.2535938 -0.19516504 0.064711645 -0.13885437
0.032591566 -0.13701113 0.05481046 -0.329035 -0.21081188 0.09983255 0.13199945 0.07697375
-0.20395084 0.680212 -0.17599723 0.5712161 -0.078254454 0.03996159 -0.45914128 0.20708448
-0.2999898 0.05860195 0.6605085 -0.8014147 -1.3672881 0.053857274 0.04880251 -0.47641188
0.051505398 0.06859019 0.45082396 0.19506063 0.7196375 -1.6612264 -0.16990289 0.3000242
-0.15157475 0.2004621 -0.14758067 -0.19142295 0.22730762 -0.06637034 0.35626867 0.6132775
-0.16102763 0.6379477 -0.74350303 -0.095543 -1.8679751 0.07649129 -0.12567072 -0.38705924
0.24129872 0.40119675 -0.37652344 -0.43946725 0.13267408 -0.5039443 -0.091707304 -0.4313309
-0.14513153 -0.20007479 0.20537268 0.25998354 -0.73002326 -0.20291309 0.19404729 0.24903607
0.363198 -0.21227588 -0.7768496 0.19030741 -0.07489194 0.11971416 0.28682286 0.29969496
-0.024074316 0.16569987 -0.13644728 0.5004958 0.20619337 -0.012125607 -0.6456935 0.029917637
0.16493012 0.2944832 0.23631003 0.41660875 -0.12141715 -0.2760288 0.13792633 0.14071226
0.16575256 0.4080947 0.1349184 -0.12488647 0.23218206 -1.199458 -0.045966905 0.3786973
0.29482266 -0.0258218 -0.23259385 -0.46064568 -0.8808788 -0.20226312 0.35856536 -0.2017492
-0.12075865 0.13876334 0.4734461 -0.8379228 -1.0592498 0.2206826 0.2955046 0.17776854
0.51348186 0.37959856 0.3032953 0.4186077 0.24541984 -2.133734 -0.14828445 0.49766585
0.09427595 0.5601925 0.20032446 0.5081925 -0.096790045 -0.14379649 0.2564354 0.21007699
00000000: d810 3fbf 0684 393e 39be 9e3e e08d 0fbe
00000010: da8c ccbd edaa 18bd 5fa2 233e f4fc b1bd
00000020: 0de0 fa3d a629 b6be bc6b 2fbd 32b6 30bf
00000030: 110c d4be 86fb 5abd 5f82 2c3e 65b5 4fbf
00000040: 896a 2d3e adc3 da3d a896 4bbf 95ce 2b3f
00000050: c2a3 f73f 4833 2bbe dd78 b5bd 7ff1 523e
00000060: 110c 873e 9fd7 44bf 4975 c7be 3e20 853e
00000070: 63e2 88bf 7525 5a40 9182 0dbe 6a0e abbf
00000080: cca0 a0be 9b63 cb3d ad53 eebc cfc6 333f
00000090: c218 833f cf14 37bd 157d 52bf bcd4 91be
000000a0: 3920 4cbf 1458 6ebf 4da7 0a3f 5f70 313e
000000b0: ef35 7840 2813 253e 783f 1f3e d09f babe
000000c0: 3c3b 22bf 5470 adbf 59f0 143f 0b85 79bd
000000d0: 9796 45bf 40fd 813f e251 e13d f483 633f
000000e0: 5372 56be 968e 03bd c918 34be d1a7 27bf
000000f0: 8cee 6e3f c32e e83d c685 20be 784e 40be
00000100: cf76 fabe ef20 703e aee2 823f 8aa5 9fbe
00000110: dca4 78be 92d9 373e af45 9e3d a2e5 9ebe
00000120: b70f a93d 4d74 0fbe 88fc 513d 3b8c c5be
00000130: d00c 10be d002 43bd a7e6 1f3f e12e e8be
00000140: 2ed1 173e 040e d2be ccca 29bd eb8d eabe
00000150: 8616 f53d a52e 1f3f c1da 183e 7347 81be
00000160: a9a3 143e 3529 adbd 4718 e13e f5f3 d9be
00000170: daf1 97be c919 6e3f 6190 d53b 0939 cbbe
00000180: c3a2 87be 9a47 3c3e 2ee2 443e f44e 5b3f
00000190: 7458 fc3f 1d4f 02be b6e6 9ebe bb5a e1be
000001a0: c8dc dfbe 22ed 88be 9df6 57be 2aa9 d03f
000001b0: 481b 703f 9e55 2dbe 8f0b 09be 2a28 27be
000001c0: e636 ebbd 74e3 c7be e81c 65be b7e2 efbe
000001d0: 7e25 b7be bab0 fb3f bd7a ef3d e0bf cabe
000001e0: 0f0b 3ebe 46c7 9cbe 2b3c 98be db8b 55be
000001f0: 0cd7 81be 58d9 47be 8a87 843d d72f 0ebe
00000200: bc7e 053d a54c 0cbe ef80 603d 4777 a8be
00000210: 12df 57be 0275 cc3d dd2a 073e 6aa4 9d3d
00000220: 7dd8 50be 6022 2e3f 9e38 34be 383b 123f
00000230: df43 a0bd c4ae 233d 9114 ebbe f40d 543e
00000240: 4398 99be 9908 703d 1617 293f 8429 4dbf
00000250: 4c03 afbf 7299 5c3d 24e5 473d 42ec f3be
00000260: 53f7 523d 0379 8c3d 66d2 e63e f9bd 473e
00000270: 2a3a 383f 11a3 d4bf 06fb 2dbe c69c 993e
00000280: 6936 1bbe f045 4d3e 631f 17be 6104 44be
00000290: 54c3 683e 2ced 87bd d968 b63e c1ff 1c3f
000002a0: 6de4 24be 8a50 233f 3756 3ebf 0cac c3bd
000002b0: cf19 efbf 77a7 9c3d d3af 00be a12c c6be
000002c0: 0317 773e a969 cd3e aec7 c0be da01 e1be
000002d0: b7db 073e 7e02 01bf 0ad1 bbbd 67d7 dcbe
000002e0: 5c9d 14be 68e0 4cbe 374d 523e 901c 853e
000002f0: cee2 3abf 73c8 4fbe 55b4 463e 5003 7f3e
00000300: 17f5 b93e d95e 59be 9edf 46bf f2df 423e
00000310: f260 99bd b32c f53d 72da 923e 9e71 993e
00000320: 8037 c5bc 3aad 293e d6b8 0bbe 7e20 003f
00000330: 5b24 533e 7baa 46bc 2b4c 25bf d515 f53c
00000340: 71e3 283e 81c6 963e 42fb 713e be4d d53e
00000350: 8ea9 f8bd a653 8dbe 8f3c 0d3e e016 103e
00000360: 0abb 293e caf1 d03e 0d28 0a3e 7ac4 ffbd
00000370: 22c1 6d3e d787 99bf cb47 3cbd 9de4 c13e
00000380: fff2 963e 3d88 d3bc 152d 6ebe c0d9 ebbe
00000390: 4681 61bf 101e 4fbe e195 b73e 5897 4ebe
000003a0: 5050 f7bd fa17 0e3e 8767 f23e 1c82 56bf
000003b0: 7f95 87bf 9ffa 613e 614c 973e f508 363e
000003c0: 8c73 033f be5a c23e 8649 9b3e c053 d63e
000003d0: 574f 7b3e 198f 08c0 e1d7 17be 0fce fe3e
000003e0: c013 c13d c768 0f3f db21 4d3e e718 023f
000003f0: dc39 c6bd 633f 13be 804b 833e 6c1e 573e
